toolkit/components/ml/tests/browser/data/acme/test-vit-gpt2-image-captioning/resolve/main/onnx/decoder_model_merged_quantized.onnx (onnx, 84790 bytes, 6 tensors)

decoder.transformer.wte.weight f4 [257, 1]
000000 b9 dc ce 3b 20 2c 05 bc 65 11 af bb 0b 25 d2 ba
       0.0063129333 -0.008128196 -0.0053426498 -0.0016032768
000010 85 42 93 bc 2a 11 e3 bc d3 b1 4a 3c 66 03 8a 3c
       -0.017976055 -0.027718145 0.012371498 0.016847324
000020 02 91 8e bc 2b 43 e6 bc 13 b7 ae 3c 54 b8 67 3c
       -0.01740313 -0.0281082 0.021327531 0.014143068
000030 8c 2b 7b 3c b9 1f 33 bc 80 73 10 3d fd 9b 08 3c
       0.015330207 -0.010932856 0.0352664 0.008337972
000040 b1 2b 8d bb 0a 0f c3 3b e0 4d 56 3d c4 e7 a4 3c
       -0.004308187 0.0059527205 0.05232036 0.020130046
000050 f8 49 7d bc 40 d6 79 3c f8 43 62 bc f6 ec a1 bc
       -0.01545953 0.015248835 -0.01381015 -0.019766312
000060 65 a3 32 3b db 06 48 39 dd d9 a8 3c 47 23 ec b9
       0.0027258035 0.0001907604 0.020611698 -0.0004503971
000070 0c 91 e6 bb 10 b7 3a bc d4 94 0f bc e0 a7 9c bc
       -0.007036334 -0.011396185 -0.008763511 -0.019123018
000080 ad d3 2b bd d1 ae 04 3c ee 57 9d 3c 7b 27 5a bc
       -0.041949917 0.00809832 0.019206967 -0.013315077
000090 eb 7d 77 b9 fe 76 94 bc 53 6e 03 bd 60 ca a0 3b
       -0.00023602664 -0.018123146 -0.032087635 0.0049069375
0000a0 e2 b7 54 bc ee 98 e1 bb 1b cb 47 bc 13 39 e9 bc
       -0.012983294 -0.0068846857 -0.01219442 -0.028469598
0000b0 b5 72 88 3c 67 ed b6 39 0f c3 ec ba ec 1d e7 3c
       0.01665626 0.00034890624 -0.0018063503 0.02821251
0000c0 5a 8f 93 bb 8a 50 0b bd 79 95 1c bc ee a6 f1 ba
       -0.004503173 -0.034012355 -0.009557121 -0.001843659
0000d0 bc 6f 41 bb 1c 49 d4 3c 97 a4 56 bc e3 12 f6 3c
       -0.0029516062 0.025913768 -0.013100765 0.030038303
0000e0 ca 6e 46 3c 6e 45 34 3d 1c 31 ed ba d4 98 10 bc
       0.012111375 0.044011526 -0.0018096301 -0.0088255
0000f0 0a 05 7a 3c 09 9c d9 bc 39 d2 1e 3c 73 de 0d 3d
       0.0152599905 -0.026563661 0.009693676 0.034635972
000100 72 58 25 3b 6e 1a ab 3b 05 98 98 bc 70 d8 01 bb
       0.002522972 0.0052216565 -0.018627176 -0.0019812845
000110 80 51 45 3c 38 ef 54 bb d5 6e 49 bc 36 0d 07 39
       0.012043357 -0.0032491218 -0.012294491 0.00012879525
000120 b4 cf c6 bc 19 c2 51 bc 9a 0e 0c bc 81 6f 94 3c
       -0.024268962 -0.012802624 -0.008548403 0.018119575
000130 77 4a 0a 3d 9d f4 be bb 77 4a bd 3c 0c 8d 64 3a
       0.03376242 -0.0058275 0.023106797 0.00087185274
000140 a9 8b b4 bc 3e f3 0b 3b 55 b2 8a 3c fd 49 b0 bc
       -0.022039251 0.00213547 0.016930738 -0.021519655
000150 cb 11 0c bd 2f 62 ce bc 04 1c b8 bb 55 8d fd 3c
       -0.034196656 -0.025193302 -0.005618574 0.030951181
000160 ad 57 ab bc ca 4f 8a 3b a3 27 0d 3d 80 dd 88 bc
       -0.02091583 0.0042209374 0.03446163 -0.016707182
000170 3a 78 0b bc f4 43 13 bc 10 3e b6 3c 73 9c f3 3c
       -0.008512551 -0.008988369 0.02224639 0.029737687
000180 95 50 cf bc 39 3f ee 3b 77 05 b8 3c fc c3 da 3b
       -0.02530698 0.0072707203 0.022463543 0.006676195
000190 6b 04 16 3a 84 f7 27 3b a4 5f 02 ba 84 0c 41 bc
       0.0005722704 0.0025629709 -0.0004973358 -0.011782769
0001a0 83 14 eb b9 2a 60 d7 bc 73 c9 34 bc 07 a6 ba bb
       -0.00044837975 -0.026290972 -0.011034357 -0.0056960615
0001b0 9f 12 1a bd 34 f9 5a 3c 4d 14 20 3c 45 94 30 bc
       -0.037615415 0.013365079 0.009770465 -0.010777538
0001c0 bc cc f9 bb 45 c2 ec 3c 34 5a 9f bc 5e 69 cb bc
       -0.007623283 0.028901229 -0.019452192 -0.024830516
0001d0 14 89 9a bb a0 a2 02 3c fa 54 97 bc 39 05 08 bc
       -0.004716048 0.007973343 -0.018473137 -0.008302026
0001e0 98 c8 f0 bb 5b b9 af bc 34 74 4b bc 50 41 7d 3b
       -0.0073481314 -0.021450689 -0.012417842 0.0038643666
0001f0 5e 9a 15 bd 7d 87 1c 3c 67 ef b5 3c b3 91 d7 bc
       -0.03652417 0.009553787 0.022208882 -0.026314592
000200 e4 3f 8d bc 42 8f fa bc 7e 7e d9 3c 79 50 bb 3c
       -0.01724238 -0.030585889 0.026549574 0.02286552
000210 99 06 2a bc a0 0a 89 3c a1 5f c2 3c d5 00 40 3c
       -0.01037755 0.0167287 0.02372724 0.011718948
000220 97 d2 ad 3c d4 07 2e b9 84 5f 15 3d 1b 83 29 bc
       0.021218581 -0.0001659685 0.036468044 -0.010346199
000230 42 08 1c bb f7 ad e4 3c fe b6 9e bc 2f 26 81 bc
       -0.0023808633 0.027914984 -0.019374367 -0.015765278
000240 cc e4 1f bb 22 95 28 3d ff 9c 94 3b b2 1a a3 3c
       -0.0024397848 0.04115785 0.004535317 0.01991019
000250 4b 68 7d bc ee 7e c4 bc 0e 3e 27 3c 2a b1 55 bd
       -0.01546676 -0.023986306 0.010207666 -0.05217091
000260 77 9c 90 bb d7 df 11 3d 05 0b 55 bc c7 56 50 bd
       -0.0044131833 0.03561386 -0.013003116 -0.050864007
000270 86 f1 53 bb 57 75 8d 3a 42 48 42 3c 77 fa 1c bd
       -0.0032340004 0.0010792416 0.011858048 -0.0383248
000280 5c 54 f6 bc 49 2a 00 bc 73 68 34 bc 2e 05 21 ba
       -0.030069523 -0.007822582 -0.011011231 -0.00061424344
000290 b9 42 09 bb ac e3 09 3c 0f 78 e2 bc 4c 05 1a 3d
       -0.002094431 0.008416098 -0.027645139 0.037602708
0002a0 f0 f7 b9 bc 09 83 0a bb 9c dd 2d 3c 8a c9 42 bc
       -0.022701234 -0.0021135232 0.010611918 -0.011888871
0002b0 7d 61 81 3c 7d 8e 38 3c 60 81 db 3c 69 0b b4 3c
       0.015793556 0.011264441 0.02679509 0.021978097
0002c0 a4 53 53 3c a9 b1 d2 3c 73 f8 2a bc 3d aa 21 3d
       0.012898359 0.02571948 -0.0104352115 0.039468993
0002d0 a1 20 de bb 33 87 74 bc ce 08 99 bc f8 72 5b 3c
       -0.006778792 -0.014924812 -0.018680956 0.01339411
0002e0 04 6a 58 bb 34 b3 a2 ba 10 1a 07 bd 94 4e 91 bc
       -0.0033022175 -0.0012413026 -0.03298384 -0.017737664
0002f0 13 bb f2 3b c9 89 8d bc a3 4e 78 bc 52 57 03 3c
       0.007407555 -0.017277615 -0.015155467 0.008016424
000300 eb e6 18 bc af 85 e7 bc 06 b4 dc bb 4e 3b c2 bc
       -0.009332399 -0.028261987 -0.0067353277 -0.02370992
000310 32 9d a7 3c 31 ae 90 3c 72 ef 9a 3b 19 cc 1e 3c
       0.020460699 0.017661186 0.004728251 0.009692215
000320 dd 84 83 3d 42 70 21 3c e9 7d cc bb fd 83 cf 3b
       0.06421826 0.0098534245 -0.0062405956 0.006332873
000330 b4 a0 71 3c a8 7a 11 bd 40 40 ad bc de 9c 4b bc
       0.014747787 -0.035517365 -0.0211488 -0.012427537
000340 05 e8 14 bd 84 54 07 bc 1b 2d 36 bc 7b bc ae 3c
       -0.036354084 -0.008259896 -0.011119152 0.021330109
000350 65 1d 90 bc 34 87 a1 bc 5d 58 2f 3d fb 94 0c bc
       -0.017592141 -0.01971779 0.04280888 -0.008580442
000360 f2 e3 e3 3c 82 ec 06 bc e6 74 13 3d ec 70 9f bc
       0.027818654 -0.008235099 0.036000155 -0.019463025
000370 6d 23 4c bc ec c9 6b bc 21 14 97 ba b4 8a 43 3c
       -0.012459618 -0.014391404 -0.0011526385 0.011934925
000380 72 d1 0c bb b2 77 e2 bb 89 c5 1d bc ae c4 79 bc
       -0.0021487144 -0.0069112414 -0.009629616 -0.015244646
000390 cf c7 f2 bb c5 0a 11 3a 8b c6 fb 3b b8 dd 4a 3c
       -0.007409073 0.0005532916 0.0076835803 0.012381963
0003a0 b6 cd a6 bc 49 3a ef bb 62 21 ea bc 27 c1 9c bb
       -0.020361762 -0.0073006493 -0.028580371 -0.0047837677
0003b0 12 e5 db 3c 6a ef a5 bc d3 c0 48 3c 33 7c d1 ba
       0.026842628 -0.020255763 0.012253004 -0.0015982449
0003c0 f9 5e 08 3d 4b 2e 87 3c a6 2a 8d bb af b1 df 3c
       0.033293698 0.016501566 -0.0043080626 0.027306406
0003d0 66 8e a3 bb 1b ff e0 bc 6e 4b de 3b 1c aa 43 bc
       -0.0049913405 -0.027465394 0.0067838943 -0.011942413
0003e0 4f e8 df bc 86 9a fd 3b 5b 5a a1 3c ce 54 ae 3c
       -0.027332453 0.007739368 0.019696405 0.021280672
0003f0 03 c4 04 3c 16 fc 84 3c 14 06 b0 bc 72 b6 bd bb
       0.008103373 0.016233485 -0.021487273 -0.0057895714

decoder.transformer.wpe.weight f4 [32, 1]
000000 6e 53 dd bc 10 6a 48 3a 5d 53 61 3c 47 6a 15 bc
       -0.027017321 0.0007645199 0.0137527855 -0.009119577
000010 4c 3e fa 3c 73 ad 62 bb 21 2e 28 3b 9e db fd 3c
       0.030547284 -0.0034588247 0.002566226 0.03098851
000020 f0 9a d7 bc 78 bb aa bc 3a 14 10 bb 78 45 91 3b
       -0.026318997 -0.020841345 -0.0021984712 0.00443333
000030 00 24 cc bb 5d 2e 9a bc cf eb e0 bc f8 02 aa 3c
       -0.0062298775 -0.018820936 -0.027456192 0.020753369
000040 12 02 86 3c 23 97 76 3b 09 77 a5 3c f4 c8 83 bb
       0.01635841 0.0037626706 0.020198362 -0.004021758
000050 c7 2d 00 3c 5e 28 35 3c 9d ed 4e 3a 2e 6b 3d 3d
       0.007823414 0.011056988 0.00078936835 0.046244793
000060 c0 85 f1 3b 75 27 5b 3c 59 10 02 3c 02 3f b3 3b
       0.0073706806 0.0133761065 0.007938468 0.0054701576
000070 f6 f4 25 bc 58 b2 04 bd 38 ec b7 bc eb fd df bb
       -0.010129204 -0.032396644 -0.022451505 -0.0068356893

decoder.transformer.h.0.attn.c_attn.weight f4 [1, 3]
000000 dc dc 35 bc 4b f8 1b bc 97 22 2d 3a
       -0.01110002 -0.009519647 0.00066045806

decoder.transformer.h.0.attn.c_attn.bias f4 [3]
000000 00 00 00 00 00 00 00 00 00 00 00 00
       0.0 0.0 0.0

decoder.transformer.h.0.crossattention.c_attn.weight f4 [1, 2]
000000 0b d2 f7 3b 87 a0 cc bb
       0.007562881 -0.0062447223

decoder.transformer.h.0.crossattention.c_attn.bias f4 [2]
000000 00 00 00 00 00 00 00 00
       0.0 0.0
