toolkit/components/ml/tests/browser/data/acme/test-vit-gpt2-image-captioning/resolve/main/onnx/encoder_model_quantized.onnx (onnx, 28908 bytes, 2 tensors)

embeddings.position_embeddings f4 [1, 197, 1]
0	0x3ce7462d	0.028231705
1	0xbb895970	-0.00419157
2	0xbcc2ce8c	-0.02378013
3	0x3c76c6d7	0.015062056
4	0xbbe2d90b	-0.006922846
5	0x3aad278a	0.0013210636
6	0x3d14ea55	0.03635629
7	0xbc9cb877	-0.019130928
8	0xbcbd8fd9	-0.023139881
9	0xbbf77523	-0.0075518056
10	0x3cbef510	0.023310214
11	0xbcc85f61	-0.024459543
12	0xbc979b9f	-0.018506823
13	0x3c43d8be	0.011953531
14	0x3c38364a	0.011243412
15	0xbbbdc208	-0.0057909526
16	0xb9f16c12	-0.0004604762
17	0x3ca29219	0.019845055
18	0x3c028b73	0.007967818
19	0x3c393754	0.011304695
20	0xbc26b1ad	-0.010174197
21	0x3c87de21	0.016585412
22	0x3abee7e2	0.0014564956
23	0xbd0ea0c7	-0.034821298
24	0x3cdede23	0.027205532
25	0x3ca08502	0.019594673
26	0x3ad0a5d5	0.0015918562
27	0xbc030159	-0.007995927
28	0xbbb76c0f	-0.0055975984
29	0xbbd62657	-0.006535332
30	0xbb0a08d3	-0.0021062389
31	0x3c348153	0.011017161
32	0xbca00669	-0.019534307
33	0x3d0a3ab4	0.03374739
34	0xbbd50839	-0.0065012244
35	0x3cb887bd	0.022525663
36	0x3c84deb7	0.01621948
37	0x3a116e02	0.00055477035
38	0xbcceb1c1	-0.025231244
39	0x3ccd320d	0.02504828
40	0xb884231a	-6.300789e-05
41	0x3b3e4b5d	0.002903662
42	0x3bba3ff3	0.005683893
43	0xbd07a7ec	-0.033119127
44	0x3c6acd73	0.0143312095
45	0xbd4fae70	-0.050703466
46	0xbc53eab9	-0.01293438
47	0xbaf497f7	-0.0018661012
48	0x3d036ad7	0.032084312
49	0x3c4ba9be	0.012430606
50	0xbc231b3d	-0.009955225
51	0xbc40bfa8	-0.011764444
52	0x3c4cb78f	0.012494936
53	0xbcad139d	-0.021127516
54	0x3b91afad	0.004445991
55	0xbd3854aa	-0.045002617
56	0xbcb7a4f7	-0.022417529
57	0x3cb54939	0.022129642
58	0x3c28481a	0.010271097
59	0xbca79220	-0.02045542
60	0x3cec55e1	0.028849544
61	0xbcc006db	-0.023440769
62	0xbbce8c88	-0.0063033737
63	0xbc85ff23	-0.01635701
64	0x3d0c0048	0.034179956
65	0x3b499738	0.00307603
66	0xbaf51e4f	-0.0018701049
67	0x3c9d7c20	0.019224226
68	0xbc4162af	-0.011803313
69	0xbadedef3	-0.00170037
70	0xbc8f8619	-0.017519997
71	0xba897cc1	-0.001048945
72	0xbba257e3	-0.0049543246
73	0x3d3e6b84	0.046489254
74	0x3c1f4859	0.009721839
75	0x3c6ada86	0.014334327
76	0xbc8f87af	-0.017520754
77	0x3cba0abe	0.0227102
78	0xbc8dfe10	-0.01733306
79	0xbcd2f6a4	-0.025752373
80	0xbb73a84c	-0.003717917
81	0xbc0e1d0c	-0.0086739175
82	0xbc2c8cc7	-0.010531611
83	0xbc3aa5f9	-0.01139211
84	0x3c8b8cbf	0.017034886
85	0x3c8e36a1	0.017360033
86	0xbd3d7a7e	-0.046259396
87	0x3c783bb6	0.015150955
88	0x3c3e2d67	0.011607504
89	0xbb4863c6	-0.0030577048
90	0xbbf09623	-0.0073421164
91	0xbd030540	-0.03198743
92	0x3d49951e	0.049214475
93	0x3cfd115b	0.030892065
94	0xbc0c3d2f	-0.008559509
95	0x3c35cb7f	0.0110958805
96	0xbbc8d9d0	-0.006129481
97	0x3c9e47e9	0.019321399
98	0xbb1e0989	-0.002411457
99	0xbaa46562	-0.0012542421
100	0x3c864074	0.016388156
101	0xbd2047ae	-0.03913086
102	0xbc6f1ebc	-0.01459473
103	0x3b630208	0.0034638662
104	0xbbeda11e	-0.0072518727
105	0x3c93fc5f	0.018064676
106	0x3c601853	0.013677674
107	0x3cbd32fc	0.0230956
108	0x3be34f76	0.0069369627
109	0x3c584224	0.013199363
110	0x3bfb7861	0.0076742624
111	0xbcd5eb80	-0.026113272
112	0x3cbbf693	0.022944724
113	0x3cce81f1	0.025208445
114	0xbbbbfa73	-0.005736643
115	0x3c264e92	0.010150569
116	0x3d22c7e4	0.03974141
117	0x3cdb1f33	0.026748275
118	0xbc7affda	-0.015319789
119	0x3b5e28e9	0.0033898896
120	0x3c9e2063	0.019302553
121	0x3bcbb97e	0.0062171808
122	0xbc61c0ca	-0.013778875
123	0xbadd7091	-0.0016894509
124	0xbd4c4b28	-0.049876362
125	0x3bf5b601	0.007498503
126	0x3a94e41f	0.0011359489
127	0x3cc1f202	0.023674969
128	0xbd1cbaec	-0.0382642
129	0xbb3f2f5d	-0.0029172518
130	0x3ba55883	0.005045952
131	0x3c177f81	0.009246708
132	0x3bd11711	0.0063809236
133	0x3d03ea1e	0.032205693
134	0xbc62de59	-0.013846957
135	0xbcaa18bb	-0.020763746
136	0xbc2dc005	-0.010604863
137	0xbd213f11	-0.039366785
138	0xbc36673c	-0.011133011
139	0xbbe4434f	-0.0069660316
140	0xbc80bea3	-0.015715903
141	0xbd1fa02e	-0.03897112
142	0x3b5b8595	0.003349637
143	0x3b3f9cf6	0.0029237843
144	0x3c83a81f	0.016071377
145	0xbbe0975b	-0.0068539805
146	0x3c8ff611	0.017573388
147	0x3d1212fe	0.035662644
148	0x3cdb964a	0.026805062
149	0x3cdd4f09	0.027015226
150	0xbc10d18a	-0.0088390205
151	0x3c32b332	0.010906981
152	0xbd239748	-0.039939195
153	0xbcdcff3d	-0.026977176
154	0x3cbfaff1	0.023399325
155	0xbcb54e82	-0.022132162
156	0xbb0960a8	-0.0020962153
157	0xbc079045	-0.008274143
158	0xbb1c4754	-0.0023846226
159	0xbcd9d8e0	-0.026592672
160	0x3a2ce0a0	0.0006594751
161	0x3cf625de	0.030047353
162	0x3d24c3c2	0.04022575
163	0xba9c8563	-0.0011941608
164	0xbc2ac897	-0.010423801
165	0x3c3c4b27	0.011492527
166	0x3d074509	0.03302482
167	0xbc82f7c1	-0.015987279
168	0x3c79739c	0.015225317
169	0xbca3fd2a	-0.020018179
170	0x3cdf3b54	0.02724997
171	0xbc01791a	-0.007902408
172	0x3cb6df84	0.022323377
173	0x3d0620c5	0.032746095
174	0x3c841c5c	0.016126804
175	0xbbfaa48d	-0.0076490105
176	0xbc39c37f	-0.011338114
177	0xbc04b752	-0.008100348
178	0x3c83142c	0.01600083
179	0xbcdfc422	-0.027315203
180	0xbc8afc74	-0.016966082
181	0x3c931197	0.017952723
182	0xbcfbe15b	-0.030747106
183	0x3c80d90f	0.015728502
184	0xbc8ddd1b	-0.017317345
185	0x3c752ef2	0.014964806
186	0x3cb7caf9	0.022435652
187	0xbd0de972	-0.03464646
188	0xbc04131c	-0.008061197
189	0x3d06dfe4	0.032928362
190	0x3b57cb53	0.0032927587
191	0xbb59e391	-0.0033247212
192	0x3a127736	0.0005587222
193	0xbb673e0b	-0.0035284783
194	0xbc86b76c	-0.016444884
195	0xbb4278b8	-0.0029674005
196	0x3cd9502b	0.026527485

embeddings.patch_embeddings.projection.weight f4 [1, 3, 16, 16]
0	0xbc5dbc84	-0.013533715
1	0xb9e03085	-0.0004276076
2	0xbd463833	-0.04839344
3	0x3d80b275	0.06284038
4	0xbc9fce4a	-0.019507546
5	0xbc2cb8cf	-0.010542109
6	0xb9cc24af	-0.00038937244
7	0xbb630f77	-0.003464667
8	0x3bbd7f33	0.0057829856
9	0x3c37c025	0.011215244
10	0x3c25ff12	0.010131614
11	0xbd08353f	-0.033253904
12	0x3b43331b	0.00297851
13	0x3cfa86a9	0.03058179
14	0xbcfb474e	-0.03067365
15	0x3cdc3d6b	0.026884755
16	0x3b94e84b	0.004544293
17	0x3ca9e4bd	0.020738954
18	0x3babfdf9	0.0052487818
19	0x3c6fa454	0.014626581
20	0xbb801d2d	-0.003909728
21	0x3ce5f57b	0.028071156
22	0x3d0ec6a2	0.0348574
23	0x3cd8c84b	0.026462695
24	0xbd18c39c	-0.037295923
25	0xbb63ceba	-0.003476067
26	0xbd258ff2	-0.04042048
27	0x3c51653e	0.012780486
28	0xbd14b828	-0.036308438
29	0xbbcceebe	-0.006254046
30	0x3d05a2a2	0.0326258
31	0xbc966cbe	-0.0183624
32	0xbce4933f	-0.027902244
33	0xbc6f3c7d	-0.014601824
34	0x3c04c921	0.0081045935
35	0xbce2051d	-0.027590329
36	0x37fadd0a	2.9905252e-05
37	0x3cd7b5dc	0.026331834
38	0xbbbd474c	-0.0057763215
39	0x3c039bb2	0.008032726
40	0x3ca0d5bc	0.019633166
41	0x3c07a9bf	0.008280217
42	0x3bc4cb70	0.006005697
43	0x3bb7ad3b	0.0056053675
44	0xbd04b416	-0.032398306
45	0x3d6d37e8	0.057914644
46	0xbcb0b849	-0.021572249
47	0xbc9ebcc6	-0.019377124
48	0x3c9bf69b	0.01903849
49	0xbd2bce31	-0.041944686
50	0x3c4a4c59	0.012347304
51	0xbc8eb4e4	-0.01742024
52	0x3d0e18d8	0.03469166
53	0xbc4c6923	-0.012476238
54	0x39c5efca	0.00037753425
55	0xba5029df	-0.00079408096
56	0x3ce2b9bd	0.027676458
57	0xbcfe568c	-0.031047128
58	0x3c405b44	0.011740509
59	0xbbf8e47c	-0.007595597
60	0x3cbdee54	0.023184933
61	0x3cb21b44	0.021741517
62	0xbc59779a	-0.013273144
63	0xbc288241	-0.010284961
64	0xbd165e96	-0.036711298
65	0xbc2d8307	-0.010590321
66	0x3ba859dd	0.0051376657
67	0x3bc5b8e8	0.0060340054
68	0xbbae9997	-0.005328368
69	0xbb7152f6	-0.003682313
70	0xbb74c0db	-0.0037346396
71	0xbc474b6d	-0.012163979
72	0x3b9f9c06	0.0048708944
73	0xbbf8c055	-0.007591287
74	0x3c97753f	0.018488524
75	0xbb27a541	-0.0025580677
76	0x3b88e119	0.0041772244
77	0xbba313b9	-0.0049767164
78	0xbc78fb86	-0.015196687
79	0xbc45553e	-0.012044249
80	0x3cc13c16	0.023588222
81	0x3c044133	0.008072185
82	0xbb61507f	-0.0034380255
83	0xbc146038	-0.009056143
84	0x3bd6a0bb	0.0065499223
85	0xbd10b02a	-0.035324253
86	0x3bcb744f	0.0062089334
87	0x3c2a8480	0.010407567
88	0xbc2a9c61	-0.01041326
89	0xbbd9a69b	-0.0066421754
90	0xbd120408	-0.035648376
91	0x3c813976	0.01577447
92	0xbcfb6ce0	-0.030691564
93	0xbc018f98	-0.007907771
94	0xbb63d00b	-0.0034761454
95	0x3b8aedc4	0.0042397697
96	0x39ea1908	0.00044650608
97	0xbc604917	-0.013689301
98	0x3b401b16	0.002931302
99	0x3bcf2c53	0.0063224225
100	0x3c925621	0.017863335
101	0x3cbe89db	0.023259094
102	0x3c2d97ff	0.010595321
103	0xbc68d89d	-0.014211801
104	0x3a27f8a4	0.0006407595
105	0xbca44721	-0.020053448
106	0xbbc02860	-0.005864188
107	0xbc314737	-0.010820202
108	0x3c894379	0.016755806
109	0x3cd52f2c	0.02602347
110	0x3a8f9fdd	0.0010957677
111	0xbc02dc97	-0.007987163
112	0xbc96c395	-0.018403808
113	0xbcc35fb6	-0.02384935
114	0xbc55a65e	-0.013040153
115	0x3cbb05f3	0.022829985
116	0x3c5eaaba	0.013590509
117	0xbd1c2e32	-0.038129993
118	0xbd26308a	-0.040573634
119	0x3bf11719	0.00735749
120	0x3bcbbca7	0.0062175575
121	0x3c48471a	0.012223983
122	0xbd18fa48	-0.03734806
123	0x3d20f692	0.039297648
124	0x3bc08040	0.0058746636
125	0x3c684cca	0.014178464
126	0x3bce319b	0.0062925345
127	0x3c75cc5f	0.015002339
128	0x3cb3f3f4	0.021966912
129	0x3ca6b16a	0.02034827
130	0xbc32ae31	-0.010905788
131	0xbc34d9c9	-0.011038252
132	0xbc5102b3	-0.012756991
133	0xbc60abdf	-0.013712852
134	0x3cba95c9	0.022776501
135	0x3b73cc1b	0.0037200514
136	0x3ccef56e	0.025263514
137	0xba1843bd	-0.00058084336
138	0xbba20909	-0.0049449247
139	0x39a6a1ca	0.0003178253
140	0xbcd32d03	-0.0257783
141	0x3adc63b5	0.0016814383
142	0x3c952ec3	0.018210774
143	0xbd288ba7	-0.041148808
144	0xbcb95f1b	-0.022628358
145	0xbbc2634a	-0.0059322463
146	0x3c417e99	0.011809968
147	0xbccb7187	-0.024834407
148	0x3c50d303	0.012745622
149	0x3b12645c	0.002233765
150	0x3c541b89	0.012946018
151	0x3c7c05e1	0.015382261
152	0xbc8ffd0c	-0.017576717
153	0x3c323762	0.010877462
154	0x3cac2b1b	0.021016648
155	0xbc636171	-0.013878212
156	0xbbe31edb	-0.0069311685
157	0x3cdd9f94	0.027053632
158	0x3bf8581e	0.0075788638
159	0x3bd0091b	0.0063487417
160	0xbc73124b	-0.014835904
161	0x3ba00f66	0.004884648
162	0xba913559	-0.0011078521
163	0xba86d78e	-0.0010287629
164	0xbce642c0	-0.028108
165	0xbc59d258	-0.013294779
166	0xbb77a5f1	-0.0037788118
167	0xbd1e6e46	-0.038679384
168	0x3cf4c7e6	0.029880475
169	0x3c80cce1	0.015722694
170	0xbcb15ab8	-0.021649703
171	0xbabc794f	-0.0014379414
172	0x3c2dc995	0.010607143
173	0xbc69ef05	-0.014278178
174	0xbcb3f020	-0.021965086
175	0x3c8cd90b	0.017193338
176	0x3acf166d	0.001579953
177	0x3c89f376	0.016839724
178	0xbc8e8104	-0.017395504
179	0xbbb40f96	-0.005495022
180	0xbc943c96	-0.018095296
181	0x3cbcaab8	0.023030624
182	0xbc504c76	-0.012713542
183	0xbc0e3b29	-0.008681097
184	0x3bde69be	0.006787508
185	0x3c460b21	0.012087614
186	0xbd0e8b66	-0.03480091
187	0x3c94d6fe	0.018168923
188	0xbc8562e7	-0.016282512
189	0xbc1e93c1	-0.009678782
190	0x3ccc5847	0.024944438
191	0xbc844992	-0.016148362
192	0x3cc6d723	0.024272507
193	0xbb4f0106	-0.0031586303
194	0xbcde8125	-0.02716119
195	0xbd187473	-0.03722043
196	0x3c8e4ea6	0.017371487
197	0x3c9e71da	0.019341398
198	0x3c2aaf41	0.01041776
199	0x3b98db1c	0.0046647917
200	0x3cfe464e	0.031039383
201	0x3ae2d4d6	0.0017305862
202	0xbb827f8c	-0.00398249
203	0xbbca5d03	-0.0061756386
204	0x3c44b880	0.012006879
205	0xbcb99ce5	-0.022657821
206	0x3be9767b	0.0071247197
207	0x3ce5c875	0.028049687
208	0xbc4acfbb	-0.012378628
209	0xbcf03066	-0.029319953
210	0x3bc1577f	0.005900323
211	0x3b8e2e17	0.0043389904
212	0x3bd07fcd	0.0063628913
213	0xbc6c8cea	-0.014437893
214	0xbd081b49	-0.033229146
215	0xbca19803	-0.019725805
216	0x3c370704	0.011171106
217	0xbc5e1306	-0.01355434
218	0x3c450e73	0.012027371
219	0xbb703db3	-0.003665787
220	0xbb08a5f3	-0.0020850867
221	0xbc537b63	-0.012907836
222	0x3d25fb7f	0.04052305
223	0xbcd5716a	-0.026055057
224	0xbc8d3da1	-0.017241301
225	0xbc5837ec	-0.013196927
226	0xbc5063ac	-0.012719076
227	0xbd080bd5	-0.03321441
228	0xbc3184a8	-0.01083485
229	0x3c98614e	0.018601086
230	0xbcd4ce0f	-0.025977163
231	0xbc80fed8	-0.015746519
232	0xbc9c3b2f	-0.01907119
233	0xbcc53850	-0.024074703
234	0xbc8f1b74	-0.017469145
235	0x3d137268	0.03599778
236	0x3cbf710c	0.023369335
237	0xbc928626	-0.017886233
238	0xbca9d5f3	-0.020731902
239	0xbbda3cf8	-0.0066601
240	0xbb87d11e	-0.0041448018
241	0x3c8aebca	0.016958136
242	0xbc918471	-0.017763348
243	0x3d7a3bd2	0.061092205
244	0xbb8e1d77	-0.0043370086
245	0xbb832844	-0.004002603
246	0xbc56cc96	-0.0131103005
247	0x3c99b203	0.01876164
248	0x3ce3d5d1	0.027811917
249	0x3ce3238b	0.02772691
250	0xbafed46f	-0.0019441972
251	0x3b8efafd	0.004363416
252	0xbc26cd0e	-0.010180725
253	0x3c195d22	0.0093605835
254	0x3cd7c3a2	0.026338402
255	0x3b30b8dd	0.0026965656
