toolkit/components/ml/tests/browser/data/acme/bert/resolve/main/onnx/model_quantized.onnx (onnx, 248468 bytes, 69 tensors)

bert.pooler.dense.bias f4 [32]
0.0 0.0 0.0 0.0 0.0 0.0 0.0 0.0
0.0 0.0 0.0 0.0 0.0 0.0 0.0 0.0
0.0 0.0 0.0 0.0 0.0 0.0 0.0 0.0
0.0 0.0 0.0 0.0 0.0 0.0 0.0 0.0
00000000: 0000 0000 0000 0000 0000 0000 0000 0000
00000010: 0000 0000 0000 0000 0000 0000 0000 0000
00000020: 0000 0000 0000 0000 0000 0000 0000 0000
00000030: 0000 0000 0000 0000 0000 0000 0000 0000
00000040: 0000 0000 0000 0000 0000 0000 0000 0000
00000050: 0000 0000 0000 0000 0000 0000 0000 0000
00000060: 0000 0000 0000 0000 0000 0000 0000 0000
00000070: 0000 0000 0000 0000 0000 0000 0000 0000

classifier.bias f4 [2]
0.0 0.0
00000000: 0000 0000 0000 0000

bert.embeddings.word_embeddings.weight_quantized u1 [1124, 32]
130 130 130 130 130 130 130 130
130 130 130 130 130 130 130 130
130 130 130 130 130 130 130 130
130 130 130 130 130 130 130 130
111 140 131 107 123 156 112 143
92 122 112 118 156 158 174 133
139 101 164 166 131 135 135 137
106 116 91 74 120 113 122 107
130 128 154 189 65 146 108 100
121 142 158 129 158 178 132 125
77 131 155 150 99 103 134 182
70 113 115 95 140 140 131 116
155 178 130 135 161 118 102 78
112 137 174 128 133 155 104 134
123 153 85 227 118 143 85 77
163 162 121 110 114 151 112 148
124 162 113 135 151 110 141 122
92 148 126 153 147 115 137 102
160 149 163 127 160 127 159 128
166 94 87 145 184 107 98 81
117 134 92 136 109 116 112 140
115 102 100 132 145 125 112 98
99 154 136 140 178 108 151 161
136 163 95 123 144 107 111 116
106 138 104 121 150 79 117 105
81 126 130 111 118 166 98 98
115 89 154 162 153 133 119 107
73 125 173 77 142 104 104 157
124 151 126 157 125 98 142 146
126 117 184 85 104 164 76 90
156 114 126 143 134 132 110 137
139 133 150 97 102 146 62 128
00000000: 8282 8282 8282 8282 8282 8282 8282 8282
00000010: 8282 8282 8282 8282 8282 8282 8282 8282
00000020: 6f8c 836b 7b9c 708f 5c7a 7076 9c9e ae85
00000030: 8b65 a4a6 8387 8789 6a74 5b4a 7871 7a6b
00000040: 8280 9abd 4192 6c64 798e 9e81 9eb2 847d
00000050: 4d83 9b96 6367 86b6 4671 735f 8c8c 8374
00000060: 9bb2 8287 a176 664e 7089 ae80 859b 6886
00000070: 7b99 55e3 768f 554d a3a2 796e 7297 7094
00000080: 7ca2 7187 976e 8d7a 5c94 7e99 9373 8966
00000090: a095 a37f a07f 9f80 a65e 5791 b86b 6251
000000a0: 7586 5c88 6d74 708c 7366 6484 917d 7062
000000b0: 639a 888c b26c 97a1 88a3 5f7b 906b 6f74
000000c0: 6a8a 6879 964f 7569 517e 826f 76a6 6262
000000d0: 7359 9aa2 9985 776b 497d ad4d 8e68 689d
000000e0: 7c97 7e9d 7d62 8e92 7e75 b855 68a4 4c5a
000000f0: 9c72 7e8f 8684 6e89 8b85 9661 6692 3e80

bert.embeddings.token_type_embeddings.weight_quantized u1 [16, 32]
154 71 115 132 132 156 96 134
74 160 152 153 133 167 119 132
103 46 128 148 134 134 100 159
146 170 124 148 146 92 61 103
202 190 78 151 130 126 135 95
114 93 108 105 231 177 116 207
145 101 155 38 80 107 107 93
132 204 155 209 56 101 92 148
140 184 173 103 163 68 21 111
116 152 115 160 110 169 127 155
162 78 78 178 101 99 84 88
138 145 169 114 111 88 204 128
113 137 199 55 132 131 157 83
80 168 215 176 227 34 130 70
191 120 131 82 103 134 165 67
174 136 175 158 121 85 139 68
137 170 158 169 102 178 95 0
159 137 55 175 195 157 159 175
178 168 69 82 150 115 129 122
85 87 149 65 107 144 109 114
136 147 141 142 82 122 90 125
140 80 184 73 161 136 113 163
106 162 170 86 187 139 189 128
255 36 115 109 120 86 150 143
118 71 134 130 87 151 207 168
210 104 145 130 191 97 166 94
108 75 184 118 58 93 225 183
54 139 146 102 177 157 174 183
146 99 212 136 140 133 97 153
116 253 102 181 162 91 50 145
109 129 143 190 227 127 224 111
135 142 145 196 137 104 97 191
00000000: 9a47 7384 849c 6086 4aa0 9899 85a7 7784
00000010: 672e 8094 8686 649f 92aa 7c94 925c 3d67
00000020: cabe 4e97 827e 875f 725d 6c69 e7b1 74cf
00000030: 9165 9b26 506b 6b5d 84cc 9bd1 3865 5c94
00000040: 8cb8 ad67 a344 156f 7498 73a0 6ea9 7f9b
00000050: a24e 4eb2 6563 5458 8a91 a972 6f58 cc80
00000060: 7189 c737 8483 9d53 50a8 d7b0 e322 8246
00000070: bf78 8352 6786 a543 ae88 af9e 7955 8b44
00000080: 89aa 9ea9 66b2 5f00 9f89 37af c39d 9faf
00000090: b2a8 4552 9673 817a 5557 9541 6b90 6d72
000000a0: 8893 8d8e 527a 5a7d 8c50 b849 a188 71a3
000000b0: 6aa2 aa56 bb8b bd80 ff24 736d 7856 968f
000000c0: 7647 8682 5797 cfa8 d268 9182 bf61 a65e
000000d0: 6c4b b876 3a5d e1b7 368b 9266 b19d aeb7
000000e0: 9263 d488 8c85 6199 74fd 66b5 a25b 3291
000000f0: 6d81 8fbe e37f e06f 878e 91c4 8968 61bf

bert.embeddings.position_embeddings.weight_quantized u1 [512, 32]
99 156 133 154 121 161 133 149
147 188 154 116 139 119 122 174
147 143 82 102 146 139 165 45
185 118 150 52 176 150 166 99
194 63 202 131 140 129 148 207
151 141 184 146 115 100 119 159
149 118 115 160 143 202 85 118
131 135 143 114 95 135 126 106
167 138 158 166 71 164 143 98
104 187 139 79 169 98 139 126
113 110 151 155 208 137 153 180
120 97 172 153 104 95 125 104
112 75 149 114 148 112 127 205
126 147 135 104 164 137 71 136
136 202 90 187 104 95 152 162
141 138 152 84 150 103 163 111
104 157 159 118 78 118 159 83
192 118 76 185 173 94 170 110
155 142 113 126 197 177 116 151
144 106 125 119 120 125 165 148
139 169 151 96 179 82 146 180
87 144 147 177 118 112 173 137
140 157 155 84 185 140 156 150
127 117 166 157 125 104 135 182
130 190 174 150 148 132 133 131
175 188 125 145 73 149 129 138
142 197 130 122 111 123 154 126
105 239 84 119 133 99 134 90
123 218 114 138 151 157 144 124
185 104 99 47 126 148 143 163
103 147 161 108 131 130 124 114
147 97 128 127 102 130 189 147
00000000: 639c 859a 79a1 8595 93bc 9a74 8b77 7aae
00000010: 938f 5266 928b a52d b976 9634 b096 a663
00000020: c23f ca83 8c81 94cf 978d b892 7364 779f
00000030: 9576 73a0 8fca 5576 8387 8f72 5f87 7e6a
00000040: a78a 9ea6 47a4 8f62 68bb 8b4f a962 8b7e
00000050: 716e 979b d089 99b4 7861 ac99 685f 7d68
00000060: 704b 9572 9470 7fcd 7e93 8768 a489 4788
00000070: 88ca 5abb 685f 98a2 8d8a 9854 9667 a36f
00000080: 689d 9f76 4e76 9f53 c076 4cb9 ad5e aa6e
00000090: 9b8e 717e c5b1 7497 906a 7d77 787d a594
000000a0: 8ba9 9760 b352 92b4 5790 93b1 7670 ad89
000000b0: 8c9d 9b54 b98c 9c96 7f75 a69d 7d68 87b6
000000c0: 82be ae96 9484 8583 afbc 7d91 4995 818a
000000d0: 8ec5 827a 6f7b 9a7e 69ef 5477 8563 865a
000000e0: 7bda 728a 979d 907c b968 632f 7e94 8fa3
000000f0: 6793 a16c 8382 7c72 9361 807f 6682 bd93

onnx::MatMul_834_scale f4 [32]
0.0005531905 0.00088562345 0.00063780125 0.00066518184 0.00096622144 0.000694019 0.000706814 0.00065249216
0.00083297066 0.00063766405 0.0006771229 0.00081961585 0.00097644207 0.0005497485 0.0007977724 0.0007039231
0.0008833789 0.0011632013 0.0007271204 0.00055604026 0.0010216265 0.00071068836 0.00064885576 0.00094816636
0.00083257427 0.00069787866 0.0005839724 0.0006012559 0.0008676995 0.0005595766 0.0009440973 0.0006490582
00000000: fc03 113a 2f29 683a 1e32 273a 995f 2e3a
00000010: 064a 7d3a d4ee 353a 7c49 393a 020c 2b3a
00000020: b75b 5a3a e928 273a f380 313a 7ddb 563a
00000030: ebf7 7f3a ff1c 103a 9921 513a 7b87 383a
00000040: 8e92 673a 8f76 983a 399c 3e3a 3bc3 113a
00000050: 19e8 853a 7d4d 3a3a f917 2a3a 5e8e 783a
00000060: 1d41 5a3a d8f1 363a b915 193a 9a9d 1d3a
00000070: 5476 633a 8db0 123a 4c7d 773a 8f25 2a3a

onnx::MatMul_834_quantized i1 [32, 32]
-7 -6 -5 -23 5 -3 10 16
16 12 36 26 64 1 -33 39
17 -9 -26 3 11 -39 5 -15
-14 28 -7 -14 19 -34 -64 -3
29 -24 -37 -50 -16 40 22 18
-4 20 -5 44 -3 8 13 56
8 -36 -9 -64 -7 -41 8 -21
28 -23 -50 20 18 5 -1 -23
25 -8 -48 4 -4 -53 -17 15
-27 16 -23 -1 -38 24 15 -14
-18 -1 -9 -56 64 15 -24 15
39 -31 -8 -31 -30 -50 -12 -12
2 -2 -8 40 -12 -17 -8 1
15 17 -52 -5 -7 -12 44 -11
15 -24 -14 -7 -9 28 -29 -40
58 2 -21 26 -15 5 34 -12
38 4 48 2 -7 -39 -53 17
22 -29 46 15 -6 3 22 16
23 -19 20 -39 9 50 9 64
-17 31 31 -21 -11 -17 10 -28
-16 64 13 36 15 3 15 28
-42 -5 -13 19 26 2 17 -45
-11 23 9 11 19 20 -64 -9
-18 47 20 14 -15 21 -14 -1
-7 -37 -43 25 -21 13 7 -44
40 -11 -33 5 -15 23 17 -29
2 -3 27 56 9 -18 7 14
-22 5 5 41 64 -29 -9 -24
-18 17 4 -12 -16 12 22 30
-35 64 -57 2 -3 -53 -39 25
5 13 -3 -47 20 13 -8 19
39 -16 9 -18 -12 0 -6 -26
00000000: f9fa fbe9 05fd 0a10 100c 241a 4001 df27
00000010: 11f7 e603 0bd9 05f1 f21c f9f2 13de c0fd
00000020: 1de8 dbce f028 1612 fc14 fb2c fd08 0d38
00000030: 08dc f7c0 f9d7 08eb 1ce9 ce14 1205 ffe9
00000040: 19f8 d004 fccb ef0f e510 e9ff da18 0ff2
00000050: eeff f7c8 400f e80f 27e1 f8e1 e2ce f4f4
00000060: 02fe f828 f4ef f801 0f11 ccfb f9f4 2cf5
00000070: 0fe8 f2f9 f71c e3d8 3a02 eb1a f105 22f4
00000080: 2604 3002 f9d9 cb11 16e3 2e0f fa03 1610
00000090: 17ed 14d9 0932 0940 ef1f 1feb f5ef 0ae4
000000a0: f040 0d24 0f03 0f1c d6fb f313 1a02 11d3
000000b0: f517 090b 1314 c0f7 ee2f 140e f115 f2ff
000000c0: f9db d519 eb0d 07d4 28f5 df05 f117 11e3
000000d0: 02fd 1b38 09ee 070e ea05 0529 40e3 f7e8
000000e0: ee11 04f4 f00c 161e dd40 c702 fdcb d919
000000f0: 050d fdd1 140d f813 27f0 09ee f400 fae6

onnx::MatMul_837_scale f4 [32]
0.0009266205 0.00077461195 0.0008194562 0.0007895216 0.0006571626 0.0004483177 0.00064190914 0.00096799625
0.00075169915 0.00079573167 0.00069013983 0.0006048273 0.00051874144 0.0004941937 0.0006931215 0.0007188206
0.00077480305 0.00066765357 0.0009207793 0.0006875793 0.0006442416 0.0008101619 0.0006756953 0.0007650547
0.00072043395 0.00075031293 0.00062891666 0.00050292833 0.0004910835 0.0007709196 0.0006116292 0.0006468171
00000000: 73e8 723a 540f 4b3a c6d0 563a e6f7 4e3a
00000010: 7045 2c3a 2f0c eb39 cb45 283a 21c1 7d3a
00000020: ad0d 453a a698 503a 80ea 343a 468d 1e3a
00000030: 26fc 073a c78c 013a 99b2 353a 3c6f 3c3a
00000040: 271c 4b3a 7905 2f3a 7460 713a aa3e 343a
00000050: 52e2 283a 0b61 543a 2521 313a f48d 483a
00000060: 81db 3c3a a6b0 443a e2dd 243a f3d6 033a
00000070: 0ebc 003a 8a17 4a3a be55 203a 298f 293a

onnx::MatMul_837_quantized i1 [32, 32]
-10 -49 34 -9 -35 49 -5 0
-64 -10 10 61 13 -11 53 24
-7 20 -33 64 48 -16 5 35
27 -30 -7 33 24 -48 -23 -19
20 7 -29 4 1 -44 29 -38
12 -5 13 64 -44 6 13 -5
34 64 36 -12 30 22 49 -12
-12 27 -19 -48 -13 20 -52 -26
2 24 -18 -45 19 46 -15 3
1 -42 -8 3 35 -37 -25 47
12 29 -3 40 28 -33 -13 55
37 -21 3 7 -28 14 18 39
27 11 -54 10 5 5 -2 -26
-17 -46 -3 -25 42 -38 -21 -9
31 47 -64 23 -4 -9 -7 -14
-15 -14 28 0 20 43 10 53
16 -28 4 34 12 44 17 12
-27 -17 18 13 34 10 20 -5
-32 21 10 0 21 -1 27 33
54 64 -31 -24 -28 -24 -3 18
6 -13 17 10 -35 -41 24 -19
6 17 -5 -45 27 54 56 -10
-30 -38 7 -23 52 -23 -5 -55
-1 -60 -1 10 -45 -14 -40 35
-13 6 41 18 37 14 -3 -35
-6 8 -43 8 4 -31 -46 -3
64 -44 34 -2 16 32 -7 -4
37 -38 20 10 17 49 1 -10
22 -44 -64 34 -5 5 13 18
9 -11 8 36 18 -18 32 -8
5 -5 20 -16 -35 -64 3 -11
19 9 -24 7 -51 -20 48 -14
00000000: f6cf 22f7 dd31 fb00 c0f6 0a3d 0df5 3518
00000010: f914 df40 30f0 0523 1be2 f921 18d0 e9ed
00000020: 1407 e304 01d4 1dda 0cfb 0d40 d406 0dfb
00000030: 2240 24f4 1e16 31f4 f41b edd0 f314 cce6
00000040: 0218 eed3 132e f103 01d6 f803 23db e72f
00000050: 0c1d fd28 1cdf f337 25eb 0307 e40e 1227
00000060: 1b0b ca0a 0505 fee6 efd2 fde7 2ada ebf7
00000070: 1f2f c017 fcf7 f9f2 f1f2 1c00 142b 0a35
00000080: 10e4 0422 0c2c 110c e5ef 120d 220a 14fb
00000090: e015 0a00 15ff 1b21 3640 e1e8 e4e8 fd12
000000a0: 06f3 110a ddd7 18ed 0611 fbd3 1b36 38f6
000000b0: e2da 07e9 34e9 fbc9 ffc4 ff0a d3f2 d823
000000c0: f306 2912 250e fddd fa08 d508 04e1 d2fd
000000d0: 40d4 22fe 1020 f9fc 25da 140a 1131 01f6
000000e0: 16d4 c022 fb05 0d12 09f5 0824 12ee 20f8
000000f0: 05fb 14f0 ddc0 03f5 1309 e807 cdec 30f2

onnx::MatMul_840_scale f4 [32]
0.0009949936 0.00056937075 0.0008211969 0.0010954867 0.00073069637 0.00071188755 0.00051105494 0.00081737776
0.0006844819 0.0008201262 0.00062814413 0.000753432 0.0006345371 0.0007370737 0.00048712667 0.0005627158
0.0006422762 0.00081816904 0.0007532055 0.00050763314 0.0006297616 0.000689155 0.0005355622 0.00063108286
0.0009058217 0.0005478212 0.0005594326 0.00054060156 0.00076797453 0.00070366554 0.00075657386 0.0007149142
00000000: 726a 823a d341 153a 9745 573a 6f96 8f3a
00000010: 348c 3f3a f79d 3a3a 51f8 053a 4b45 563a
00000020: ce6e 333a bdfd 563a 0aaa 243a f781 453a
00000030: 1057 263a 2e38 413a 0965 ff39 3883 133a
00000040: 6d5e 283a 657a 563a c472 453a af12 053a
00000050: 9616 253a 69a8 343a f964 0c3a 416f 253a
00000060: aa74 6d3a a99b 0f3a e3a6 123a 28b7 0d3a
00000070: e651 493a 3276 383a d054 463a 1469 3b3a

onnx::MatMul_840_quantized i1 [32, 32]
0 38 -24 -30 -2 -42 -12 -12
18 20 10 53 4 -62 1 12
49 27 -49 2 21 -15 18 6
6 -7 3 -30 15 -41 32 -6
-25 -15 29 -5 -9 16 -54 14
-28 -15 -34 26 -15 -11 -14 -64
-13 -34 2 24 -5 45 7 9
0 -6 -16 -41 -8 -16 36 10
27 -23 0 -7 8 -7 -33 -61
9 -15 -5 -23 6 -1 11 -5
11 18 -10 -54 -45 -25 -40 -23
-8 -64 -1 -10 25 -31 12 11
11 19 17 30 42 52 0 -15
-26 -12 37 22 -10 23 61 28
44 -27 -19 64 -30 -36 -45 -42
1 -19 -46 -17 33 0 9 -24
39 -12 -7 0 -8 -4 9 -46
-20 14 18 28 -14 -21 -36 -33
38 -26 20 32 43 21 -28 -13
-5 -30 -28 9 37 15 4 -6
-19 -13 -52 11 33 -4 16 3
-6 8 49 -35 4 2 -6 8
-37 1 -2 1 -41 -42 49 -13
23 15 -34 56 64 -2 -13 13
9 -14 43 5 -2 -10 -13 -5
-14 35 41 -28 0 5 -24 38
64 34 5 12 10 -64 10 12
-10 10 64 25 12 34 -50 19
6 14 -16 -27 -30 -19 53 -26
-7 -26 44 6 -28 28 11 -54
33 22 7 -41 16 -26 -39 -3
3 40 16 -47 -49 -6 -5 -19
00000000: 0026 e8e2 fed6 f4f4 1214 0a35 04c2 010c
00000010: 311b cf02 15f1 1206 06f9 03e2 0fd7 20fa
00000020: e7f1 1dfb f710 ca0e e4f1 de1a f1f5 f2c0
00000030: f3de 0218 fb2d 0709 00fa f0d7 f8f0 240a
00000040: 1be9 00f9 08f9 dfc3 09f1 fbe9 06ff 0bfb
00000050: 0b12 f6ca d3e7 d8e9 f8c0 fff6 19e1 0c0b
00000060: 0b13 111e 2a34 00f1 e6f4 2516 f617 3d1c
00000070: 2ce5 ed40 e2dc d3d6 01ed d2ef 2100 09e8
00000080: 27f4 f900 f8fc 09d2 ec0e 121c f2eb dcdf
00000090: 26e6 1420 2b15 e4f3 fbe2 e409 250f 04fa
000000a0: edf3 cc0b 21fc 1003 fa08 31dd 0402 fa08
000000b0: db01 fe01 d7d6 31f3 170f de38 40fe f30d
000000c0: 09f2 2b05 fef6 f3fb f223 29e4 0005 e826
000000d0: 4022 050c 0ac0 0a0c f60a 4019 0c22 ce13
000000e0: 060e f0e5 e2ed 35e6 f9e6 2c06 e41c 0bca
000000f0: 2116 07d7 10e6 d9fd 0328 10d1 cffa fbed

onnx::MatMul_844_scale f4 [32]
0.00067064544 0.00088759686 0.00077730586 0.0005977572 0.000676797 0.0008934038 0.00056675484 0.00068044936
0.0006944303 0.00082944974 0.00080382486 0.0007502206 0.00070608844 0.0010616377 0.00094453775 0.0005633918
0.0007825236 0.000510291 0.0007642039 0.00078996754 0.0009573642 0.00064315205 0.00072021433 0.000552801
0.00073920295 0.0006545573 0.00061762775 0.0007300361 0.0006632137 0.00073250063 0.0008558047 0.0007338468
00000000: 41ce 2f3a 9ead 683a 1dc4 4b3a ceb2 1c3a
00000010: 146b 313a 5033 6a3a 4692 143a 2f60 323a
00000020: 6e0a 363a 6e6f 593a c6b7 523a 74aa 443a
00000030: cb18 393a a626 8b3a db9a 773a 95b0 133a
00000040: 4522 4d3a 0dc5 053a db54 483a d315 4f3a
00000050: a0f7 7a3a 3499 283a c4cc 3c3a d9e9 103a
00000060: 12c7 413a 9996 2b3a 4ce8 213a e55f 3f3a
00000070: 85db 2d3a 4905 403a 1558 603a a05f 403a

onnx::MatMul_844_quantized i1 [32, 32]
25 8 -47 37 -41 -14 -61 -23
1 -19 -20 -4 16 -15 20 -23
1 26 11 24 -5 -24 16 -56
-13 19 -11 -26 -32 -7 14 -64
-25 -6 0 12 50 11 -64 20
21 46 -24 5 -64 -7 -28 -28
42 -6 -1 22 -9 37 47 49
35 -6 -2 -1 -36 1 -27 19
-22 -8 3 -12 27 12 5 -29
-64 5 -7 64 -41 -20 -23 -61
29 36 35 39 56 8 -2 26
7 -49 21 32 17 31 -46 -32
17 12 -14 -20 -11 -44 -60 -29
15 -2 -9 -9 34 1 -10 -46
24 -14 29 11 -9 -13 -28 -19
16 31 -25 -4 -56 11 -60 30
25 3 -21 -4 -31 -19 -12 22
-28 7 -32 15 39 -5 36 -29
-21 36 3 10 -5 11 -26 30
19 26 -15 3 8 -32 0 -13
44 -4 -55 46 -3 -28 32 -22
5 12 -48 -53 29 -1 -44 -19
10 -29 -39 -11 13 26 0 32
-56 -7 -57 64 20 -8 24 53
64 0 -7 15 -10 -6 5 45
-34 34 -25 -40 15 30 6 -64
34 -27 -5 -14 -22 -18 -14 17
7 -64 11 -23 -9 -25 -3 -49
-51 3 -7 36 -14 -32 -29 8
-17 64 26 -11 51 -13 -8 -31
14 -12 -15 45 17 6 -13 11
30 -57 7 -20 30 11 -27 9
00000000: 1908 d125 d7f2 c3e9 01ed ecfc 10f1 14e9
00000010: 011a 0b18 fbe8 10c8 f313 f5e6 e0f9 0ec0
00000020: e7fa 000c 320b c014 152e e805 c0f9 e4e4
00000030: 2afa ff16 f725 2f31 23fa feff dc01 e513
00000040: eaf8 03f4 1b0c 05e3 c005 f940 d7ec e9c3
00000050: 1d24 2327 3808 fe1a 07cf 1520 111f d2e0
00000060: 110c f2ec f5d4 c4e3 0ffe f7f7 2201 f6d2
00000070: 18f2 1d0b f7f3 e4ed 101f e7fc c80b c41e
00000080: 1903 ebfc e1ed f416 e407 e00f 27fb 24e3
00000090: eb24 030a fb0b e61e 131a f103 08e0 00f3
000000a0: 2cfc c92e fde4 20ea 050c d0cb 1dff d4ed
000000b0: 0ae3 d9f5 0d1a 0020 c8f9 c740 14f8 1835
000000c0: 4000 f90f f6fa 052d de22 e7d8 0f1e 06c0
000000d0: 22e5 fbf2 eaee f211 07c0 0be9 f7e7 fdcf
000000e0: cd03 f924 f2e0 e308 ef40 1af5 33f3 f8e1
000000f0: 0ef4 f12d 1106 f30b 1ec7 07ec 1e0b e509

onnx::MatMul_845_scale f4 [37]
0.0009854928 0.00063927245 0.00079647626 0.00058455893 0.00073505216 0.000626475 0.0010373949 0.0005729979
0.00066416856 0.00075656624 0.00089996244 0.00057972816 0.00084820046 0.0007479681 0.000855746 0.0007197278
0.00055585837 0.00071023114 0.00066498935 0.00068156887 0.00062934787 0.000918976 0.0007330171 0.0008168626
0.0006967259 0.000588994 0.00080280117 0.00051483186 0.0006928657 0.00058415934 0.0007419789 0.00087768264
0.00052203675 0.00068650185 0.0007334044 0.0006589433 0.000755239
00000000: a72b 813a d994 273a 9eca 503a 163d 193a
00000010: 84b0 403a 073a 243a 32f9 873a 3d35 163a
00000020: 991b 2e3a 4d54 463a 75eb 6b3a e6f8 173a
00000030: c559 5e3a 4a13 443a 2454 603a 1dac 3c3a
00000040: 06b7 113a ce2e 3a3a ae52 2e3a 50ab 323a
00000050: d2fa 243a 6fe7 703a f227 403a b922 563a
00000060: 7ca4 363a b866 1a3a 1373 523a c8f5 063a
00000070: 6ea1 353a 4522 193a 5c81 423a 4914 663a
00000080: 4bd9 083a 5cf6 333a f041 403a f0bc 2c3a
00000090: 3bfb 453a

onnx::MatMul_845_quantized i1 [32, 37]
-9 21 12 -64 -19 10 0 21
-28 -5 -15 57 -20 37 1 21
12 -29 17 4 -4 6 45 -1
-31 2 -15 33 -15 6 -2 -30
-43 -29 30 -42 -34 -16 -41 7
-11 -7 -5 17 -46 -13 26 -2
5 39 33 53 11 25 34 -22
-57 33 -8 -49 15 -25 53 23
45 17 26 -10 -15 -34 4 22
21 3 -21 -1 12 -54 -50 -46
-2 -21 -2 0 7 -22 -14 -35
-19 12 -8 19 -15 64 14 5
64 -22 -33 -24 38 -33 -21 -10
3 -10 -8 -27 -58 -27 -8 22
48 -31 20 -7 36 11 16 5
-25 -15 63 -7 -47 7 -14 54
31 -59 13 20 13 -21 -15 35
22 -24 41 20 -9 -34 -9 -39
36 -13 -14 20 31 64 18 20
-36 8 44 -53 -53 -34 6 3
-16 -6 -46 -39 -45 11 -64 36
-12 14 10 1 -21 -30 -33 44
-45 -3 36 -6 50 21 0 -2
-19 6 -54 9 -26 -13 27 -35
27 -1 -5 -16 9 -34 -31 -9
31 -55 -28 -15 41 -19 -13 -12
4 -3 3 13 7 17 -19 -11
-14 -16 1 -30 59 7 3 -26
-36 -4 24 11 64 7 -4 34
30 -51 -16 -2 63 -42 -8 30
22 -28 4 -10 41 35 25 42
29 -27 -8 -15 -64 8 -16 4
00000000: f715 0cc0 ed0a 0015 e4fb f139 ec25 0115
00000010: 0ce3 1104 fc06 2dff e102 f121 f106 fee2
00000020: d5e3 1ed6 def0 d707 f5f9 fb11 d2f3 1afe
00000030: 0527 2135 0b19 22ea c721 f8cf 0fe7 3517
00000040: 2d11 1af6 f1de 0416 1503 ebff 0cca ced2
00000050: feeb fe00 07ea f2dd ed0c f813 f140 0e05
00000060: 40ea dfe8 26df ebf6 03f6 f8e5 c6e5 f816
00000070: 30e1 14f9 240b 1005 e7f1 3ff9 d107 f236
00000080: 1fc5 0d14 0deb f123 16e8 2914 f7de f7d9
00000090: 24f3 f214 1f40 1214 dc08 2ccb cbde 0603
000000a0: f0fa d2d9 d30b c024 f40e 0a01 ebe2 df2c
000000b0: d3fd 24fa 3215 00fe ed06 ca09 e6f3 1bdd
000000c0: 1bff fbf0 09de e1f7 1fc9 e4f1 29ed f3f4
000000d0: 04fd 030d 0711 edf5 f2f0 01e2 3b07 03e6
000000e0: dcfc 180b 4007 fc22 1ecd f0fe 3fd6 f81e
000000f0: 16e4 04f6 2923 192a 1de5 f8f1 c008 f004

onnx::MatMul_846_scale f4 [32]
0.00059634435 0.000782087 0.0008937964 0.0009067431 0.00065980694 0.00079886045 0.0007879958 0.0005073619
0.0007348751 0.0006817061 0.0007528861 0.00093761616 0.0005338878 0.0007396098 0.0006305908 0.00054249936
0.00078451075 0.00095739064 0.0005455104 0.0009080342 0.0006007459 0.00059708493 0.0006735721 0.0009912453
0.00082238554 0.00092946424 0.00064369757 0.0008295705 0.0007300217 0.00052485144 0.00066917046 0.00085744116
00000000: fe53 1c3a f804 4d3a a94d 6a3a 80b2 6d3a
00000010: e5f6 2c3a 9e6a 513a 8191 4e3a 7b00 053a
00000020: a2a4 403a 86b4 323a 555d 453a 5bca 753a
00000030: 9bf4 0b3a 60e2 413a 3b4e 253a 8436 0e3a
00000040: a0a7 4d3a 66f9 7a3a 9500 0f3a 2509 6e3a
00000050: 607b 1d3a b185 1c3a a992 303a acec 813a
00000060: 5c95 573a 4aa7 733a d0bd 283a 8977 593a
00000070: ed5e 3f3a 2f96 093a 456b 2f3a e7c5 603a

onnx::MatMul_846_quantized i1 [37, 32]
8 -26 -1 -6 -9 -8 24 -11
-19 0 -15 -26 0 -47 -20 35
-25 -27 -64 14 -1 -49 1 -64
10 -20 -14 -3 19 37 38 31
12 0 16 8 23 -17 35 1
30 -64 4 3 4 4 -43 31
11 14 3 23 -36 4 -36 -17
14 -3 47 -13 24 50 31 10
35 -8 38 25 -1 -4 -50 -23
-40 -12 9 11 27 -44 2 7
20 13 54 -23 -21 -22 26 -10
17 -35 -12 45 -20 -61 34 -51
-3 -49 5 -16 15 2 36 14
-52 -10 26 -53 9 1 26 -55
32 -6 7 17 6 -31 15 -8
-30 -16 -25 -19 13 -23 -5 -44
-25 18 -4 -13 18 22 4 14
30 -11 -1 64 26 64 42 -57
-2 13 -52 -6 -61 7 29 7
-6 -2 -22 -11 -37 -51 3 -18
22 -51 22 -30 -36 20 -24 -16
57 17 -8 32 -60 18 54 -42
-14 64 -39 1 -18 -20 -34 -24
-2 12 44 7 48 -18 -15 -2
20 56 5 14 32 8 0 21
11 12 -22 -3 19 -29 -28 -53
-35 25 11 -36 14 -9 -17 -20
9 -7 8 -23 -42 -1 -1 -28
53 -13 37 17 61 -31 8 28
31 -12 -3 -8 11 50 20 15
35 9 42 -1 -23 4 27 -4
-64 1 -20 -14 -55 53 10 19
00000000: 08e6 fffa f7f8 18f5 ed00 f1e6 00d1 ec23
00000010: e7e5 c00e ffcf 01c0 0aec f2fd 1325 261f
00000020: 0c00 1008 17ef 2301 1ec0 0403 0404 d51f
00000030: 0b0e 0317 dc04 dcef 0efd 2ff3 1832 1f0a
00000040: 23f8 2619 fffc cee9 d8f4 090b 1bd4 0207
00000050: 140d 36e9 ebea 1af6 11dd f42d ecc3 22cd
00000060: fdcf 05f0 0f02 240e ccf6 1acb 0901 1ac9
00000070: 20fa 0711 06e1 0ff8 e2f0 e7ed 0de9 fbd4
00000080: e712 fcf3 1216 040e 1ef5 ff40 1a40 2ac7
00000090: fe0d ccfa c307 1d07 fafe eaf5 dbcd 03ee
000000a0: 16cd 16e2 dc14 e8f0 3911 f820 c412 36d6
000000b0: f240 d901 eeec dee8 fe0c 2c07 30ee f1fe
000000c0: 1438 050e 2008 0015 0b0c eafd 13e3 e4cb
000000d0: dd19 0bdc 0ef7 efec 09f9 08e9 d6ff ffe4
000000e0: 35f3 2511 3de1 081c 1ff4 fdf8 0b32 140f
000000f0: 2309 2aff e904 1bfc c001 ecf2 c935 0a13

onnx::MatMul_847_scale f4 [32]
0.00062016107 0.0006769462 0.0006671125 0.0007186343 0.0008723028 0.0007885776 0.000590283 0.00084965525
0.0010745813 0.00062720675 0.0006034944 0.0004991323 0.00066816784 0.0007787711 0.00074666314 0.00059089327
0.00067870424 0.0008119955 0.0006418343 0.0005042991 0.000517215 0.00090081163 0.00071409054 0.00063060224
0.0006608328 0.00078121945 0.00076937256 0.0005697291 0.00062034203 0.00065899885 0.00048463425 0.0007023601
00000000: 4e92 223a 1775 313a 29e1 2e3a bb62 3c3a
00000010: 40ab 643a 8cb8 4e3a 39bd 1a3a 66bb 5e3a
00000020: f7d8 8c3a 226b 243a d333 1e3a 34d8 023a
00000030: fc27 2f3a 7226 4c3a b7bb 433a 2de6 1a3a
00000040: 12eb 313a 18dc 543a c540 283a f132 043a
00000050: b695 073a 7224 6c3a ce31 3b3a 004f 253a
00000060: bd3b 2d3a c0ca 4c3a b8af 493a df59 153a
00000070: 739e 223a aac0 2c3a 8216 fe39 971e 383a

onnx::MatMul_847_quantized i1 [32, 32]
-17 -12 -3 22 13 -20 64 3
-14 -12 -64 -59 40 7 -56 -42
17 51 -9 -26 30 -9 -7 64
-36 -50 -45 -3 -31 -5 7 53
3 -6 20 15 -36 18 -31 12
-44 18 -33 28 -27 -51 -18 13
26 5 -59 -31 22 4 -21 4
-41 -1 8 -1 -22 -25 -58 25
2 -28 42 -23 25 30 29 12
3 2 31 45 40 64 41 32
33 -41 64 -13 44 8 -19 -48
5 35 21 63 31 -40 21 -10
-29 16 60 0 18 -3 13 9
-15 -3 18 16 -15 9 -27 17
-23 -24 11 59 -8 41 -57 -19
64 12 12 26 17 -22 -1 1
-23 1 -45 2 -13 -64 -62 -33
-7 -18 21 51 -52 -20 -4 -16
12 -11 -5 -9 55 6 44 -1
27 17 24 -11 4 -9 -21 1
6 -28 22 2 -14 1 16 22
12 -42 -52 12 -8 30 -28 11
12 11 62 -37 -54 -2 18 -32
-46 14 -14 -23 -10 -51 0 -24
-39 5 -49 9 -4 3 22 6
30 7 27 53 1 -32 5 59
20 23 41 -50 31 -16 8 -14
-17 23 -36 -24 62 -47 36 23
9 17 -2 10 -2 -7 20 28
-27 -11 -21 6 -26 -2 27 -41
-11 64 34 -29 15 -19 -23 -17
-24 -13 37 38 1 25 52 -35
00000000: eff4 fd16 0dec 4003 f2f4 c0c5 2807 c8d6
00000010: 1133 f7e6 1ef7 f940 dcce d3fd e1fb 0735
00000020: 03fa 140f dc12 e10c d412 df1c e5cd ee0d
00000030: 1a05 c5e1 1604 eb04 d7ff 08ff eae7 c619
00000040: 02e4 2ae9 191e 1d0c 0302 1f2d 2840 2920
00000050: 21d7 40f3 2c08 edd0 0523 153f 1fd8 15f6
00000060: e310 3c00 12fd 0d09 f1fd 1210 f109 e511
00000070: e9e8 0b3b f829 c7ed 400c 0c1a 11ea ff01
00000080: e901 d302 f3c0 c2df f9ee 1533 ccec fcf0
00000090: 0cf5 fbf7 3706 2cff 1b11 18f5 04f7 eb01
000000a0: 06e4 1602 f201 1016 0cd6 cc0c f81e e40b
000000b0: 0c0b 3edb cafe 12e0 d20e f2e9 f6cd 00e8
000000c0: d905 cf09 fc03 1606 1e07 1b35 01e0 053b
000000d0: 1417 29ce 1ff0 08f2 ef17 dce8 3ed1 2417
000000e0: 0911 fe0a fef9 141c e5f5 eb06 e6fe 1bd7
000000f0: f540 22e3 0fed e9ef e8f3 2526 0119 34dd

onnx::MatMul_850_scale f4 [32]
0.00067181326 0.0007295407 0.00074206194 0.0010282783 0.00093341887 0.0007202631 0.00078917254 0.0008030378
0.00054714305 0.00072424696 0.00088038016 0.0006161718 0.0008101535 0.00062134746 0.0007513269 0.0008656892
0.0007181882 0.0008144848 0.0006287417 0.0007265636 0.00065909757 0.0006246271 0.0008494482 0.0009068246
0.000792889 0.00077965116 0.00064214144 0.00075241475 0.00062651036 0.00073724374 0.001024504 0.00055936765
00000000: a01c 303a a63e 3f3a ef86 423a 4bc7 863a
00000010: aeb0 743a 0ad0 3c3a 79e0 4e3a f482 523a
00000020: 266e 0f3a 64db 3d3a 50c9 663a 9786 213a
00000030: 7b60 543a ece1 223a b2f4 443a 6bef 623a
00000040: cb44 3c3a 2683 553a 24d2 243a dc76 3e3a
00000050: 4ac7 2c3a 04be 233a 81ad 5e3a f8b7 6d3a
00000060: e1d9 4f3a 8161 4c3a 6255 283a b33d 453a
00000070: 663c 243a 9743 413a a648 863a 87a2 123a

onnx::MatMul_850_quantized i1 [32, 32]
-59 37 -15 -5 2 7 11 8
64 -44 -7 -6 19 4 39 29
-26 2 38 16 51 -39 -18 18
64 -11 62 19 14 3 -4 23
-43 33 21 25 38 19 -3 -25
-1 -22 -27 11 -24 8 -64 -3
-10 41 -37 22 -1 46 18 28
4 41 -29 18 -47 -38 6 -15
-15 -16 0 21 16 16 26 -41
15 -9 14 27 1 1 -48 -31
-6 34 7 44 2 37 -1 15
-4 26 24 3 -14 8 9 -19
45 -25 21 -25 25 2 -59 40
-3 32 23 -33 -43 9 24 11
-35 12 -3 -13 29 10 38 -4
39 12 20 4 27 -17 -23 -41
40 -42 19 22 17 -40 -2 -3
64 28 10 -9 18 39 16 -7
-19 -16 22 -1 46 14 17 1
-26 27 -23 19 -23 -10 9 32
-64 1 -3 -24 12 4 -34 46
-39 51 6 -26 25 -35 3 -51
-9 -3 -18 23 24 12 5 -36
4 27 -64 -1 64 -22 -23 -11
30 -21 7 10 -39 2 -64 -18
-6 -17 28 8 0 -37 -44 31
-19 1 27 33 -18 38 4 -12
-32 -3 -22 28 -41 20 8 -10
11 -34 -25 -64 -15 48 35 1
-25 -7 -64 -10 -14 -11 -36 20
23 -8 -45 58 -54 16 6 7
50 -64 -21 -8 -46 -45 4 35
00000000: c525 f1fb 0207 0b08 40d4 f9fa 1304 271d
00000010: e602 2610 33d9 ee12 40f5 3e13 0e03 fc17
00000020: d521 1519 2613 fde7 ffea e50b e808 c0fd
00000030: f629 db16 ff2e 121c 0429 e312 d1da 06f1
00000040: f1f0 0015 1010 1ad7 0ff7 0e1b 0101 d0e1
00000050: fa22 072c 0225 ff0f fc1a 1803 f208 09ed
00000060: 2de7 15e7 1902 c528 fd20 17df d509 180b
00000070: dd0c fdf3 1d0a 26fc 270c 1404 1bef e9d7
00000080: 28d6 1316 11d8 fefd 401c 0af7 1227 10f9
00000090: edf0 16ff 2e0e 1101 e61b e913 e9f6 0920
000000a0: c001 fde8 0c04 de2e d933 06e6 19dd 03cd
000000b0: f7fd ee17 180c 05dc 041b c0ff 40ea e9f5
000000c0: 1eeb 070a d902 c0ee faef 1c08 00db d41f
000000d0: ed01 1b21 ee26 04f4 e0fd ea1c d714 08f6
000000e0: 0bde e7c0 f130 2301 e7f9 c0f6 f2f5 dc14
000000f0: 17f8 d33a ca10 0607 32c0 ebf8 d2d3 0423

onnx::MatMul_853_scale f4 [32]
0.00074952265 0.00079500687 0.00071291527 0.00072219415 0.00048242783 0.00087091967 0.00085784076 0.00058115274
0.0006480067 0.0004886414 0.001157254 0.00071396824 0.0006094657 0.00076670374 0.00061958184 0.0007555568
0.0007918023 0.0009870987 0.00065708265 0.0006678625 0.0006819772 0.0007987295 0.00085211516 0.0007734991
0.00080650335 0.0009191473 0.00093358516 0.000747792 0.00066501996 0.0006482868 0.0007224278 0.0008048922
00000000: 9d7b 443a 0268 503a efe2 3a3a a151 3d3a
00000010: 5eee fc39 6e4e 643a b8e0 603a 8058 183a
00000020: fede 293a 2b18 003a 00af 973a 9929 3b3a
00000030: 8dc4 1f3a 9efc 483a 6f6b 223a 8f10 463a
00000040: f490 4f3a 8961 813a 1240 2c3a 7e13 2f3a
00000050: b7c6 323a d461 513a 7b60 5f3a a5c4 4a3a
00000060: 866b 533a eef2 703a d7bb 743a 7907 443a
00000070: bc54 2e3a caf1 293a 4f61 3d3a 67ff 523a

onnx::MatMul_853_quantized i1 [32, 32]
-3 -4 -22 47 1 5 9 -31
33 -37 7 18 -7 -21 25 -22
5 11 29 -7 -43 -13 18 -32
-21 47 37 -36 0 -41 -61 -1
-31 -5 -8 -9 5 15 29 2
50 7 15 -3 44 36 -34 20
-24 7 7 8 -6 27 -19 -24
24 5 -15 54 -32 15 -29 29
-8 22 -11 -57 2 -11 -4 -4
-34 -41 -7 -64 21 -6 -6 22
23 4 -15 -3 38 -10 -13 -13
60 15 17 7 21 -12 -30 -4
9 -23 10 2 -61 -17 13 -6
24 47 -14 16 -21 19 -40 22
-23 31 28 -34 -25 -26 30 -12
9 6 -11 12 64 -7 22 -16
12 23 31 34 -7 -6 0 -13
-23 -29 -19 0 19 1 -64 55
6 5 15 -51 3 -13 8 17
-7 -33 -15 57 3 -18 -10 -11
17 15 42 6 -61 -40 11 17
-4 6 -35 -21 38 16 -9 -43
-24 -8 2 22 43 -18 12 5
27 3 -36 -64 30 -34 -30 -1
-63 -57 9 -27 0 -22 17 18
-17 46 4 -40 47 18 -27 8
8 -1 -54 -58 8 8 25 9
17 1 -9 -14 -6 6 16 9
24 -50 -5 -20 -16 -64 -2 64
31 38 12 -44 27 -1 -6 -3
-9 7 53 -3 -20 21 -28 51
-27 -23 17 15 -9 8 -27 16
00000000: fdfc ea2f 0105 09e1 21db 0712 f9eb 19ea
00000010: 050b 1df9 d5f3 12e0 eb2f 25dc 00d7 c3ff
00000020: e1fb f8f7 050f 1d02 3207 0ffd 2c24 de14
00000030: e807 0708 fa1b ede8 1805 f136 e00f e31d
00000040: f816 f5c7 02f5 fcfc ded7 f9c0 15fa fa16
00000050: 1704 f1fd 26f6 f3f3 3c0f 1107 15f4 e2fc
00000060: 09e9 0a02 c3ef 0dfa 182f f210 eb13 d816
00000070: e91f 1cde e7e6 1ef4 0906 f50c 40f9 16f0
00000080: 0c17 1f22 f9fa 00f3 e9e3 ed00 1301 c037
00000090: 0605 0fcd 03f3 0811 f9df f139 03ee f6f5
000000a0: 110f 2a06 c3d8 0b11 fc06 ddeb 2610 f7d5
000000b0: e8f8 0216 2bee 0c05 1b03 dcc0 1ede e2ff
000000c0: c1c7 09e5 00ea 1112 ef2e 04d8 2f12 e508
000000d0: 08ff cac6 0808 1909 1101 f7f2 fa06 1009
000000e0: 18ce fbec f0c0 fe40 1f26 0cd4 1bff fafd
000000f0: f707 35fd ec15 e433 e5e9 110f f708 e510

onnx::MatMul_857_scale f4 [32]
0.0004461196 0.0007232784 0.0008188756 0.00079702697 0.0006795441 0.0007372275 0.0006291486 0.00081371184
0.0007333885 0.0007404404 0.00089523266 0.0007152069 0.0008314162 0.0008479274 0.001000541 0.0005749608
0.0006306812 0.00065079797 0.000908408 0.00047958695 0.0007949908 0.0007369296 0.0009429839 0.000902487
0.00094993383 0.0006264534 0.0009346746 0.0004437651 0.000759082 0.0007954538 0.00076074695 0.0007308514
00000000: 29e5 e939 649a 3d3a d0a9 563a 93ef 503a
00000010: 6f23 323a 8042 413a 73ed 243a 474f 553a
00000020: de40 403a 1d1a 423a 0cae 6a3a b97c 3b3a
00000030: 66f3 593a 7247 5e3a 9624 833a f7b8 163a
00000040: 4d54 253a 509a 2a3a 3b22 6e3a 1271 fb39
00000050: ee66 503a 822e 413a 9432 773a e194 6c3a
00000060: fb04 793a 9338 243a f304 753a 25a9 e839
00000070: 21fd 463a 0086 503a dd6c 473a 9b96 3f3a

onnx::MatMul_857_quantized i1 [32, 32]
19 -25 -14 -17 -13 -25 16 -6
28 -49 7 30 17 15 19 -34
-37 37 -1 1 21 3 51 -45
10 -8 -30 10 9 8 0 -1
41 22 -43 -14 -34 22 26 -33
24 -20 23 -62 5 27 -19 17
-20 9 -7 8 64 -20 -18 9
15 -56 -1 -27 17 12 34 14
34 43 18 45 4 9 1 13
6 30 5 3 -28 1 -31 -38
31 -40 -15 -22 22 -39 -10 6
-25 -2 -33 -4 -19 -18 1 64
-49 -32 64 -33 -27 41 -15 16
24 -28 -1 -3 20 31 6 13
-16 -29 -25 64 -51 -5 7 25
-7 3 -4 -63 15 -34 -2 19
-5 -15 -19 49 35 -5 -19 14
31 -10 -2 4 -6 29 -23 5
40 2 27 52 39 -21 -23 5
-13 -64 -57 14 -16 -3 -8 13
-22 -4 -7 -23 12 -10 -30 -21
13 -5 34 -59 -11 57 -15 48
-10 9 -64 4 -22 -10 11 64
-15 48 -9 12 34 6 9 24
-10 9 -6 29 34 31 -60 -5
-45 -8 -15 -32 16 -7 23 -1
-20 5 22 -51 24 -14 -13 -1
-21 -28 -2 -64 -42 7 -9 -45
64 8 20 27 17 -2 37 -5
-49 -64 5 26 -37 -8 -9 5
-64 7 -46 30 -31 54 -4 24
13 -21 36 24 16 21 11 9
00000000: 13e7 f2ef f3e7 10fa 1ccf 071e 110f 13de
00000010: db25 ff01 1503 33d3 0af8 e20a 0908 00ff
00000020: 2916 d5f2 de16 1adf 18ec 17c2 051b ed11
00000030: ec09 f908 40ec ee09 0fc8 ffe5 110c 220e
00000040: 222b 122d 0409 010d 061e 0503 e401 e1da
00000050: 1fd8 f1ea 16d9 f606 e7fe dffc edee 0140
00000060: cfe0 40df e529 f110 18e4 fffd 141f 060d
00000070: f0e3 e740 cdfb 0719 f903 fcc1 0fde fe13
00000080: fbf1 ed31 23fb ed0e 1ff6 fe04 fa1d e905
00000090: 2802 1b34 27eb e905 f3c0 c70e f0fd f80d
000000a0: eafc f9e9 0cf6 e2eb 0dfb 22c5 f539 f130
000000b0: f609 c004 eaf6 0b40 f130 f70c 2206 0918
000000c0: f609 fa1d 221f c4fb d3f8 f1e0 10f9 17ff
000000d0: ec05 16cd 18f2 f3ff ebe4 fec0 d607 f7d3
000000e0: 4008 141b 11fe 25fb cfc0 051a dbf8 f705
000000f0: c007 d21e e136 fc18 0deb 2418 1015 0b09

onnx::MatMul_858_scale f4 [37]
0.00073744816 0.00042704563 0.00062257744 0.0010496244 0.0007377485 0.0007656934 0.0006501292 0.0007663187
0.0009133487 0.0009219733 0.0011192813 0.00092553813 0.00070130377 0.0007195066 0.00073991163 0.00080903876
0.00075029215 0.000521907 0.00074961246 0.00083648704 0.00078252214 0.0006336972 0.0007476283 0.0007552611
0.0008130922 0.0009942316 0.0010194185 0.00088994025 0.0007785187 0.00060888816 0.000491217 0.00084293395
0.00061921513 0.0006165685 0.0006776477 0.000687392 0.00070885336
00000000: 4f51 413a 18e5 df39 7734 233a 8d93 893a
00000010: 7765 413a d0b8 483a 6f6d 2a3a c7e2 483a
00000020: cb6d 6f3a 95b0 713a d9b4 923a d09f 723a
00000030: b3d7 373a 459d 3c3a a1f6 413a ac15 543a
00000040: 41af 443a 96d0 083a a481 443a b247 5b3a
00000050: 2c22 4d3a b31e 263a 7cfc 433a b7fc 453a
00000060: b225 553a e050 823a 029e 853a e14a 693a
00000070: 8115 4c3a cb9d 1f3a 04c5 003a 57f8 5c3a
00000080: d352 223a 36a1 213a 2ba4 313a 1932 343a
00000090: 58d2 393a

onnx::MatMul_858_quantized i1 [32, 37]
-11 -8 21 -36 3 36 -21 -34
-9 60 11 11 -25 -48 -6 40
-23 8 -27 1 19 6 -17 32
33 -2 -7 31 -43 -10 7 -26
-33 30 -7 7 -19 -55 -15 21
-30 11 23 -55 -26 9 -17 0
-10 -32 -14 -62 18 28 -15 -33
-40 13 8 12 -47 30 -45 -30
-7 3 -41 8 10 -25 -4 40
-28 -31 39 28 54 -14 64 -64
40 20 -4 -36 -14 -10 -45 19
7 -1 13 40 -21 -6 64 -44
3 24 13 -14 -4 20 -2 3
-44 -3 -21 -4 -11 18 -29 -13
13 15 9 6 -2 -31 49 -1
11 22 11 -55 -29 21 -14 -28
-57 -1 21 -15 -2 -16 36 -61
1 29 35 6 8 64 8 58
-9 -64 0 -6 15 -54 11 -15
-24 34 -19 33 0 -1 -2 -23
-64 -27 -38 -6 8 -50 -26 26
25 42 20 -24 -5 21 3 -52
-15 -31 20 -11 5 -64 40 -43
7 7 48 64 7 -27 3 -35
54 12 8 16 -14 -22 -15 40
-22 -49 -9 37 -14 -49 -23 2
-21 22 9 30 0 -11 -17 -60
-36 5 -12 -8 -27 20 -13 -4
28 -21 -5 -30 21 11 3 47
17 -25 48 27 7 10 -33 -11
50 4 50 -3 15 -6 -35 -5
19 0 -13 58 -25 22 6 -25
00000000: f5f8 15dc 0324 ebde f73c 0b0b e7d0 fa28
00000010: e908 e501 1306 ef20 21fe f91f d5f6 07e6
00000020: df1e f907 edc9 f115 e20b 17c9 e609 ef00
00000030: f6e0 f2c2 121c f1df d80d 080c d11e d3e2
00000040: f903 d708 0ae7 fc28 e4e1 271c 36f2 40c0
00000050: 2814 fcdc f2f6 d313 07ff 0d28 ebfa 40d4
00000060: 0318 0df2 fc14 fe03 d4fd ebfc f512 e3f3
00000070: 0d0f 0906 fee1 31ff 0b16 0bc9 e315 f2e4
00000080: c7ff 15f1 fef0 24c3 011d 2306 0840 083a
00000090: f7c0 00fa 0fca 0bf1 e822 ed21 00ff fee9
000000a0: c0e5 dafa 08ce e61a 192a 14e8 fb15 03cc
000000b0: f1e1 14f5 05c0 28d5 0707 3040 07e5 03dd
000000c0: 360c 0810 f2ea f128 eacf f725 f2cf e902
000000d0: eb16 091e 00f5 efc4 dc05 f4f8 e514 f3fc
000000e0: 1ceb fbe2 150b 032f 11e7 301b 070a dff5
000000f0: 3204 32fd 0ffa ddfb 1300 f33a e716 06e7

onnx::MatMul_859_scale f4 [32]
0.0007579223 0.000930013 0.0006569108 0.00088392734 0.0007608626 0.0007295631 0.0007385109 0.0007633784
0.000677107 0.00065557164 0.00088277314 0.00089698046 0.0006016734 0.00066977507 0.00056948914 0.00067039183
0.00069516985 0.00043524217 0.000900999 0.0005594187 0.0005324507 0.0008256221 0.0010048212 0.00066388154
0.001193274 0.00070245913 0.00073282764 0.00076837547 0.0009871856 0.0006613764 0.000696809 0.00070768356
00000000: 4eaf 463a 1ecc 733a 8a34 2c3a 5cb7 673a
00000010: a074 473a 2740 3f3a a198 413a 751d 483a
00000020: e27f 313a abda 2b3a e769 673a 5723 6b3a
00000030: 9eb9 1d3a d893 2f3a c549 153a 3cbd 2f3a
00000040: 0f3c 363a 3731 e439 0531 6c3a f4a5 123a
00000050: 2994 0b3a 906e 583a 34b4 833a 5608 2e3a
00000060: a267 9c3a 3c25 383a 3b1b 403a ce6c 493a
00000070: 7464 813a 3860 2d3a 0faa 363a d783 393a

onnx::MatMul_859_quantized i1 [37, 32]
-15 18 -13 21 22 3 17 14
-13 20 12 -11 -14 -39 -5 -4
15 -46 2 33 -13 26 -13 13
25 -36 -8 -5 0 40 42 -3
-4 -17 16 -8 -2 64 -42 64
46 -8 10 34 20 1 64 15
46 -14 -8 58 14 0 -31 7
30 -24 20 32 64 -7 46 -3
28 -24 -5 -34 -31 -3 5 -18
23 24 11 28 9 30 -48 16
35 -15 30 0 -17 -22 0 -7
-41 -36 64 14 42 -25 -9 -36
9 24 -29 6 1 33 -43 23
8 41 -22 32 52 1 -13 -8
-11 -8 5 21 11 -5 7 3
24 -12 -23 -27 -26 23 30 4
-41 5 8 -26 36 -15 15 -20
-6 30 -26 49 -19 26 -12 22
-27 13 10 38 -24 -19 11 44
1 -2 4 -25 32 17 12 -4
64 -28 40 -7 -3 18 -1 -19
9 10 -26 -11 20 37 -26 39
-48 -13 2 -25 31 -4 -1 27
-4 50 -50 -17 33 9 3 64
35 13 10 -62 7 2 64 5
-21 35 -26 64 -23 -25 -33 6
-21 0 -18 31 -7 -7 -9 -16
2 33 -20 -34 3 46 -27 -10
-7 -8 -10 -14 -12 -6 29 -24
-27 -28 -13 1 21 44 -14 13
-8 -29 -44 6 -4 5 19 -41
-7 -25 -11 15 7 -38 -6 -12
00000000: f112 f315 1603 110e f314 0cf5 f2d9 fbfc
00000010: 0fd2 0221 f31a f30d 19dc f8fb 0028 2afd
00000020: fcef 10f8 fe40 d640 2ef8 0a22 1401 400f
00000030: 2ef2 f83a 0e00 e107 1ee8 1420 40f9 2efd
00000040: 1ce8 fbde e1fd 05ee 1718 0b1c 091e d010
00000050: 23f1 1e00 efea 00f9 d7dc 400e 2ae7 f7dc
00000060: 0918 e306 0121 d517 0829 ea20 3401 f3f8
00000070: f5f8 0515 0bfb 0703 18f4 e9e5 e617 1e04
00000080: d705 08e6 24f1 0fec fa1e e631 ed1a f416
00000090: e50d 0a26 e8ed 0b2c 01fe 04e7 2011 0cfc
000000a0: 40e4 28f9 fd12 ffed 090a e6f5 1425 e627
000000b0: d0f3 02e7 1ffc ff1b fc32 ceef 2109 0340
000000c0: 230d 0ac2 0702 4005 eb23 e640 e9e7 df06
000000d0: eb00 ee1f f9f9 f7f0 0221 ecde 032e e5f6
000000e0: f9f8 f6f2 f4fa 1de8 e5e4 f301 152c f20d
000000f0: f8e3 d406 fc05 13d7 f9e7 f50f 07da faf4

onnx::MatMul_860_scale f4 [32]
0.00083783997 0.0007653059 0.00068720966 0.0007623648 0.0010322623 0.0005784209 0.0006082237 0.00070718897
0.0008017067 0.00064431643 0.0006779451 0.0006531976 0.0007463467 0.0005587084 0.00069769594 0.00080729503
0.00079023896 0.00053676177 0.0006542283 0.00075064687 0.0005734173 0.0010561809 0.0006896824 0.00064224977
0.00083608984 0.00066223484 0.0006263802 0.0006976394 0.0005855568 0.0009010938 0.00075250055 0.0008365061
00000000: 7da2 5b3a cf9e 483a dc25 343a 70d9 473a
00000010: fa4c 873a 2ba1 173a 3471 1f3a a662 393a
00000020: a029 523a 58e7 283a 20b8 313a 593b 2b3a
00000030: 7ba6 433a 4976 123a 95e5 363a a7a0 533a
00000040: 0a28 4f3a 79b5 0c3a 8580 2b3a 0fc7 443a
00000050: 6251 163a 8d6f 8a3a cdcb 343a a75c 283a
00000060: 0a2d 5b3a d499 2d3a aa33 243a cae1 363a
00000070: 0d80 193a 6237 6c3a 7543 453a f948 5b3a

onnx::MatMul_860_quantized i1 [32, 32]
7 -12 12 -31 -11 -30 63 -64
1 -19 2 -7 21 -50 -28 26
15 -1 -32 -41 -20 34 29 -5
14 38 25 -25 9 12 -18 -6
9 6 -64 6 -9 -37 -42 26
3 -11 -11 12 64 25 19 17
6 -30 -18 1 5 -7 3 -42
-33 -27 14 5 4 4 19 13
-12 -21 -2 -31 -15 21 -18 4
26 7 32 -10 8 0 30 12
38 -6 -14 26 12 13 -21 -5
2 -31 10 7 22 35 -15 4
1 38 -18 -21 -29 -45 -43 35
-28 35 0 -19 -32 -9 7 -13
4 28 -11 27 -49 5 -22 -33
-7 -19 -36 10 15 -16 -12 8
32 -7 -3 -9 11 11 -19 -59
0 -64 -28 -1 11 -14 39 -26
-64 -10 -62 -11 -9 19 -60 5
-13 42 -23 -25 -43 -6 -26 38
-29 32 -7 25 64 -4 -64 16
15 -4 6 32 -17 -34 7 -12
-11 -55 -11 6 41 25 19 -16
41 -54 -3 7 28 -19 18 -8
52 23 32 -34 -8 50 -48 0
7 -11 -1 22 28 0 1 -10
-13 46 -64 64 16 -7 16 -11
3 -27 0 -36 12 28 -4 -9
34 10 18 -16 -17 9 -35 12
-6 -4 29 -36 -20 2 -43 15
18 64 -20 -26 25 -10 6 8
7 15 -22 -11 -6 -64 -20 5
00000000: 07f4 0ce1 f5e2 3fc0 01ed 02f9 15ce e41a
00000010: 0fff e0d7 ec22 1dfb 0e26 19e7 090c eefa
00000020: 0906 c006 f7db d61a 03f5 f50c 4019 1311
00000030: 06e2 ee01 05f9 03d6 dfe5 0e05 0404 130d
00000040: f4eb fee1 f115 ee04 1a07 20f6 0800 1e0c
00000050: 26fa f21a 0c0d ebfb 02e1 0a07 1623 f104
00000060: 0126 eeeb e3d3 d523 e423 00ed e0f7 07f3
00000070: 041c f51b cf05 eadf f9ed dc0a 0ff0 f408
00000080: 20f9 fdf7 0b0b edc5 00c0 e4ff 0bf2 27e6
00000090: c0f6 c2f5 f713 c405 f32a e9e7 d5fa e626
000000a0: e320 f919 40fc c010 0ffc 0620 efde 07f4
000000b0: f5c9 f506 2919 13f0 29ca fd07 1ced 12f8
000000c0: 3417 20de f832 d000 07f5 ff16 1c00 01f6
000000d0: f32e c040 10f9 10f5 03e5 00dc 0c1c fcf7
000000e0: 220a 12f0 ef09 dd0c fafc 1ddc ec02 d50f
000000f0: 1240 ece6 19f6 0608 070f eaf5 fac0 ec05

onnx::MatMul_863_scale f4 [32]
0.0005910266 0.00089646695 0.0007820852 0.00085444836 0.000892628 0.0009102632 0.00054859085 0.00073325005
0.0005243527 0.0005599765 0.0006506146 0.0010761505 0.00080549065 0.00051420677 0.0005946892 0.00083248026
0.000716443 0.0006022083 0.0007221498 0.0009016317 0.0007712057 0.0007215758 0.00062506774 0.0008103483
0.00062817684 0.0008979507 0.00072564563 0.0009105847 0.00070461445 0.0008065752 0.00052251754 0.00070623873
00000000: 20ef 1a3a e100 6b3a d904 4d3a 0ffd 5f3a
00000010: 40ff 693a bb9e 6e3a 4fcf 0f3a 9437 403a
00000020: b774 093a 63cb 123a 028e 2a3a 9e0d 8d3a
00000030: 9027 533a d5cb 063a ebe4 1b3a ce3a 5a3a
00000040: adcf 3b3a 84dd 1d3a a74e 3d3a 7b5b 6c3a
00000050: bd2a 4a3a 2228 3d3a 96db 233a 8e6d 543a
00000060: 3cac 243a 7464 6b3a 4139 3e3a 4eb4 6e3a
00000070: e0b5 383a 5870 533a 8ff9 083a e122 393a

onnx::MatMul_863_quantized i1 [32, 32]
28 -31 0 2 11 5 -13 -2
20 -11 0 -21 16 9 59 28
-14 35 -13 55 -27 -13 -12 5
15 -43 -42 -64 33 -30 -45 11
-34 -15 -15 40 44 -13 38 9
-2 -31 28 5 -8 38 15 51
21 -64 18 30 24 -12 9 1
-14 32 18 8 -28 19 20 18
-1 -32 23 -31 36 -1 -14 -40
16 31 31 24 -3 2 1 -1
-33 38 30 -13 -19 -21 28 6
55 -10 8 58 32 30 9 39
-36 -17 11 -64 -34 -18 -15 -30
31 -4 -4 11 -7 -53 -30 26
44 -24 64 11 20 -9 13 -1
-19 9 36 43 24 -11 -46 3
-30 -37 -33 23 12 -3 40 49
52 9 30 -3 26 7 -48 -29
9 5 0 -8 9 -28 -26 16
41 -16 -26 26 -19 -32 11 28
-15 -12 -4 0 -18 17 -52 8
-21 33 -5 20 -2 19 13 -6
13 -57 -13 -8 -1 -64 -19 16
-43 21 29 -18 57 27 16 24
15 23 -11 -27 -35 10 21 -30
-29 13 7 26 64 -21 -37 -21
0 -13 -19 21 -15 -6 15 -10
3 25 0 -4 -64 -13 -20 32
2 -24 11 -18 1 -22 37 -10
-15 21 -37 -8 6 -20 20 64
-22 22 -6 1 13 -41 22 28
-31 0 14 -3 11 50 -16 17
00000000: 1ce1 0002 0b05 f3fe 14f5 00eb 1009 3b1c
00000010: f223 f337 e5f3 f405 0fd5 d6c0 21e2 d30b
00000020: def1 f128 2cf3 2609 fee1 1c05 f826 0f33
00000030: 15c0 121e 18f4 0901 f220 1208 e413 1412
00000040: ffe0 17e1 24ff f2d8 101f 1f18 fd02 01ff
00000050: df26 1ef3 edeb 1c06 37f6 083a 201e 0927
00000060: dcef 0bc0 deee f1e2 1ffc fc0b f9cb e21a
00000070: 2ce8 400b 14f7 0dff ed09 242b 18f5 d203
00000080: e2db df17 0cfd 2831 3409 1efd 1a07 d0e3
00000090: 0905 00f8 09e4 e610 29f0 e61a ede0 0b1c
000000a0: f1f4 fc00 ee11 cc08 eb21 fb14 fe13 0dfa
000000b0: 0dc7 f3f8 ffc0 ed10 d515 1dee 391b 1018
000000c0: 0f17 f5e5 dd0a 15e2 e30d 071a 40eb dbeb
000000d0: 00f3 ed15 f1fa 0ff6 0319 00fc c0f3 ec20
000000e0: 02e8 0bee 01ea 25f6 f115 dbf8 06ec 1440
000000f0: ea16 fa01 0dd7 161c e100 0efd 0b32 f011

onnx::MatMul_866_scale f4 [32]
0.00078596896 0.00052066625 0.00080546126 0.0005953856 0.0007238356 0.00048643103 0.00081594323 0.00067190384
0.00074686436 0.00063179247 0.0007212315 0.0009114849 0.0008249483 0.0008246207 0.0005861617 0.0006461557
0.00058604236 0.0006361669 0.000636198 0.00082934555 0.0006338438 0.0009380543 0.0007734091 0.0006983839
0.0008939637 0.00074011734 0.0006523541 0.0011390469 0.00066828047 0.0006946397 0.00072893477 0.00070732087
00000000: 7c09 4e3a 527d 083a 9725 533a a713 1c3a
00000010: c9bf 3d3a ab07 ff39 06e5 553a b422 303a
00000020: 38c9 433a e09e 253a 0711 3d3a b7f0 6e3a
00000030: 5841 583a 5c2b 583a a5a8 193a c662 293a
00000040: a3a0 193a 70c4 263a 86c6 263a 7068 593a
00000050: 8a28 263a c2e7 753a 9bbe 4a3a c013 373a
00000060: e358 6a3a 6f04 423a be02 2b3a 124c 953a
00000070: 8b2f 2f3a 7b18 363a fc15 3f3a 806b 393a

onnx::MatMul_866_quantized i1 [32, 32]
12 -29 -29 31 52 16 -17 0
-27 8 -22 -18 6 29 -3 -6
-24 28 -7 -2 -29 -9 2 28
15 16 -21 -24 -20 -46 37 -48
37 41 -7 9 44 -9 49 41
23 -14 5 8 -2 -7 1 25
-40 -21 -3 9 44 -6 34 13
-34 17 -17 27 -2 -25 4 -26
11 63 26 -30 -24 8 -5 28
17 3 11 -5 14 20 -60 38
-58 0 -15 -12 4 -26 13 42
-7 17 0 17 34 9 -38 -16
56 48 31 1 -9 -13 -21 -32
-5 -31 -40 -24 4 -16 15 18
28 -60 -35 23 3 -23 19 1
-20 24 -42 18 -18 -2 -34 13
-6 -12 -22 -6 -27 -1 3 -26
4 11 5 -23 -2 32 -3 -32
-27 -19 39 4 -64 33 -23 21
-10 -64 38 -4 26 1 15 -45
-15 43 31 16 22 -4 -10 42
19 -22 -2 -5 -11 -1 -23 37
-4 -16 17 31 -41 32 31 -34
-35 39 -3 8 21 10 4 -15
-18 -23 35 -51 -32 -15 -20 18
-16 -29 -22 64 -16 0 4 -1
31 -37 26 49 17 64 4 -15
-59 -35 0 20 9 -10 -9 -19
1 0 34 12 -7 -21 12 7
16 19 -5 -22 -50 32 -21 -1
-23 -8 -23 64 17 -22 -33 -12
-17 -53 27 -19 24 9 -32 -27
00000000: 0ce3 e31f 3410 ef00 e508 eaee 061d fdfa
00000010: e81c f9fe e3f7 021c 0f10 ebe8 ecd2 25d0
00000020: 2529 f909 2cf7 3129 17f2 0508 fef9 0119
00000030: d8eb fd09 2cfa 220d de11 ef1b fee7 04e6
00000040: 0b3f 1ae2 e808 fb1c 1103 0bfb 0e14 c426
00000050: c600 f1f4 04e6 0d2a f911 0011 2209 daf0
00000060: 3830 1f01 f7f3 ebe0 fbe1 d8e8 04f0 0f12
00000070: 1cc4 dd17 03e9 1301 ec18 d612 eefe de0d
00000080: faf4 eafa e5ff 03e6 040b 05e9 fe20 fde0
00000090: e5ed 2704 c021 e915 f6c0 26fc 1a01 0fd3
000000a0: f12b 1f10 16fc f62a 13ea fefb f5ff e925
000000b0: fcf0 111f d720 1fde dd27 fd08 150a 04f1
000000c0: eee9 23cd e0f1 ec12 f0e3 ea40 f000 04ff
000000d0: 1fdb 1a31 1140 04f1 c5dd 0014 09f6 f7ed
000000e0: 0100 220c f9eb 0c07 1013 fbea ce20 ebff
000000f0: e9f8 e940 11ea dff4 efcb 1bed 1809 e0e5

onnx::MatMul_870_scale f4 [32]
0.00082919135 0.00080114347 0.0005507159 0.0010165072 0.000625832 0.0008721723 0.00058447506 0.0010122011
0.00051266246 0.0005638206 0.0006472474 0.0009072171 0.00087285717 0.0004813183 0.00060134777 0.0007264138
0.0007048068 0.00050498603 0.0007543418 0.0007656071 0.00071777776 0.0008220263 0.0008064714 0.000656355
0.00069748156 0.0006853773 0.00077439524 0.0010629471 0.0006165997 0.0007304008 0.00045684865 0.000575647
00000000: 175e 593a d403 523a eb5d 103a 523c 853a
00000010: e00e 243a 7ea2 643a 7537 193a d5ab 843a
00000020: 3264 063a 5ccd 133a 0aac 293a 4fd2 6d3a
00000030: 74d0 643a 7359 fc39 c4a3 1d3a ce6c 3e3a
00000040: c9c2 383a 0a61 043a 05bf 453a 06b3 483a
00000050: 4029 3c3a 407d 573a 6169 533a 3d0f 2c3a
00000060: 32d7 363a e4aa 333a c900 4b3a 9652 8b3a
00000070: 4ea3 213a 5e78 3f3a 3085 ef39 04e7 163a

onnx::MatMul_870_quantized i1 [32, 32]
56 -16 5 7 -15 2 0 7
36 25 -8 -49 -4 -40 -17 24
-19 64 -2 27 14 -6 -23 64
-8 -3 -22 -15 32 24 0 1
-11 -2 53 -4 42 22 8 17
33 28 35 30 26 -31 -28 14
47 61 -5 35 -5 -35 49 8
9 4 42 -7 -4 -4 -3 25
16 42 33 26 -21 0 55 -2
-3 -25 -9 -7 20 45 21 -58
-36 48 -26 43 14 -11 27 51
12 -13 -12 11 -31 32 10 -39
-29 41 24 -6 -50 13 54 6
13 40 24 7 48 -38 54 20
-1 -8 -39 8 7 7 -29 42
4 7 22 -6 2 46 -32 2
26 -3 -7 -30 24 64 -56 30
-6 -61 -32 20 -1 10 15 -42
27 5 -5 15 -2 -2 -3 -8
14 -31 31 7 -51 41 8 -39
21 -12 -2 -2 -31 -15 36 5
53 -24 -5 3 -23 15 23 -30
-43 -17 -4 -32 -12 2 -30 -17
-64 -17 31 -1 28 33 -64 -16
64 -58 -21 40 -16 17 -37 -8
-35 9 -8 4 28 -52 -3 -29
-17 35 7 -11 -25 11 -2 -60
27 5 -31 -24 9 8 20 14
18 3 -30 13 49 10 14 1
8 -10 -29 -31 -24 -20 -15 -1
9 -24 -34 -19 21 30 30 -24
22 10 7 -37 13 -11 -15 20
00000000: 38f0 0507 f102 0007 2419 f8cf fcd8 ef18
00000010: ed40 fe1b 0efa e940 f8fd eaf1 2018 0001
00000020: f5fe 35fc 2a16 0811 211c 231e 1ae1 e40e
00000030: 2f3d fb23 fbdd 3108 0904 2af9 fcfc fd19
00000040: 102a 211a eb00 37fe fde7 f7f9 142d 15c6
00000050: dc30 e62b 0ef5 1b33 0cf3 f40b e120 0ad9
00000060: e329 18fa ce0d 3606 0d28 1807 30da 3614
00000070: fff8 d908 0707 e32a 0407 16fa 022e e002
00000080: 1afd f9e2 1840 c81e fac3 e014 ff0a 0fd6
00000090: 1b05 fb0f fefe fdf8 0ee1 1f07 cd29 08d9
000000a0: 15f4 fefe e1f1 2405 35e8 fb03 e90f 17e2
000000b0: d5ef fce0 f402 e2ef c0ef 1fff 1c21 c0f0
000000c0: 40c6 eb28 f011 dbf8 dd09 f804 1ccc fde3
000000d0: ef23 07f5 e70b fec4 1b05 e1e8 0908 140e
000000e0: 1203 e20d 310a 0e01 08f6 e3e1 e8ec f1ff
000000f0: 09e8 deed 151e 1ee8 160a 07db 0df5 f114

onnx::MatMul_871_scale f4 [37]
0.0007297568 0.00071873487 0.0005681513 0.0007876552 0.0008465483 0.0007592842 0.00071637664 0.0006436373
0.00064795493 0.001003557 0.0007813255 0.00073402043 0.0007218826 0.0007625662 0.00080607866 0.00080882927
0.0008245732 0.00079414545 0.0007987861 0.0008312964 0.0010260586 0.0007017622 0.0007855329 0.0008622233
0.00087907497 0.0007244253 0.0007022289 0.00048445497 0.0009559156 0.00073516794 0.0009226766 0.0007702953
0.00048469074 0.0008631522 0.00066878326 0.00072834693 0.0009160027
00000000: 264d 3f3a 7b69 3c3a fdef 143a a57a 4e3a
00000010: e5ea 5d3a b30a 473a 39cb 3b3a c5b9 283a
00000020: 85db 293a c989 833a ded1 4c3a 476b 403a
00000030: b93c 3d3a f4e6 473a 064f 533a 9d07 543a
00000040: 2c28 583a 332e 503a a165 513a 5beb 593a
00000050: d07c 863a 77f6 373a 38ec 4d3a d406 623a
00000060: b971 663a 5ce7 3d3a c915 383a 72fe fd39
00000070: 6996 7a3a 49b8 403a c7df 713a a4ed 493a
00000080: 171e fe39 2a45 623a 4951 2f3a 89ee 3e3a
00000090: e71f 703a

onnx::MatMul_871_quantized i1 [32, 37]
28 -39 28 -15 -27 -12 -17 35
-11 -25 -42 5 2 26 -15 -33
-37 -64 64 7 2 -12 -11 -20
64 15 3 15 -22 21 -37 -53
-10 1 17 -4 15 -25 -6 -37
-32 12 16 -50 22 -29 20 -15
13 23 -24 9 -37 -1 -51 10
11 -10 10 26 -43 -8 -21 26
45 -2 57 -34 32 25 -50 -22
57 -6 1 2 34 -8 35 -64
16 34 50 -3 4 -64 -50 -10
-21 -64 15 -19 22 -64 11 11
-49 -43 4 -17 2 55 19 -39
-4 -20 28 -2 -12 -6 -43 -15
-39 11 7 -9 24 -6 -13 -40
-36 -51 8 -27 29 25 -40 14
-16 20 19 -41 26 1 -19 -6
23 17 0 -64 -5 -16 49 28
50 -31 -24 -46 -1 -8 -8 10
64 23 12 -33 -14 -28 29 2
25 8 -38 -22 -23 12 18 42
6 2 36 6 29 -40 -35 -7
-21 33 31 -11 -52 -1 -22 28
29 -44 -30 -43 6 -3 7 -4
23 16 16 -23 32 25 -22 24
17 53 8 3 -3 19 -23 43
-23 24 25 13 -52 0 23 8
-29 20 19 64 -18 24 29 -24
16 36 10 -14 -26 -56 36 18
31 0 -7 4 35 9 26 -29
-38 -10 4 -9 11 6 -3 -44
53 -33 -26 3 -24 64 -38 51
00000000: 1cd9 1cf1 e5f4 ef23 f5e7 d605 021a f1df
00000010: dbc0 4007 02f4 f5ec 400f 030f ea15 dbcb
00000020: f601 11fc 0fe7 fadb e00c 10ce 16e3 14f1
00000030: 0d17 e809 dbff cd0a 0bf6 0a1a d5f8 eb1a
00000040: 2dfe 39de 2019 ceea 39fa 0102 22f8 23c0
00000050: 1022 32fd 04c0 cef6 ebc0 0fed 16c0 0b0b
00000060: cfd5 04ef 0237 13d9 fcec 1cfe f4fa d5f1
00000070: d90b 07f7 18fa f3d8 dccd 08e5 1d19 d80e
00000080: f014 13d7 1a01 edfa 1711 00c0 fbf0 311c
00000090: 32e1 e8d2 fff8 f80a 4017 0cdf f2e4 1d02
000000a0: 1908 daea e90c 122a 0602 2406 1dd8 ddf9
000000b0: eb21 1ff5 ccff ea1c 1dd4 e2d5 06fd 07fc
000000c0: 1710 10e9 2019 ea18 1135 0803 fd13 e92b
000000d0: e918 190d cc00 1708 e314 1340 ee18 1de8
000000e0: 1024 0af2 e6c8 2412 1f00 f904 2309 1ae3
000000f0: daf6 04f7 0b06 fdd4 35df e603 e840 da33

onnx::MatMul_872_scale f4 [32]
0.0006436493 0.0008434261 0.0008551795 0.00065463793 0.00080405764 0.0007411756 0.0006347983 0.0007963495
0.00090860017 0.0007167097 0.00079220353 0.00082109077 0.0008082941 0.00081414543 0.000715627 0.0007729221
0.0008420312 0.0006663904 0.0008324966 0.0009587958 0.0007377184 0.00064241403 0.00088690437 0.0006315966
0.0008874084 0.00077021535 0.00077603076 0.00091284653 0.0007188419 0.00058629725 0.00081492786 0.0007193658
00000000: 93ba 283a 5e19 5d3a 202e 603a 029c 2b3a
00000010: 65c7 523a 744b 423a 9868 263a 1cc2 503a
00000020: 202f 6e3a 93e1 3b3a e1ab 4f3a 783e 573a
00000030: b3e3 533a 606c 553a ea98 3b3a ed9d 4a3a
00000040: c2bb 5c3a b4b0 2e3a e73b 5a3a b257 7b3a
00000050: 7263 413a ad67 283a 257f 683a bb91 253a
00000060: f8a0 683a 47e8 493a 8b6e 4b3a 184c 6f3a
00000070: aa70 3c3a beb1 193a e2a0 553a d293 3c3a
